output/tuning_results/DSTAGNN_run_1.pth (torch, 411138 bytes, 12 tensors)

adj f4 [207, 207]
0	0x3eae2d8a	0.3401912
1	0x00000000	0.0
2	0x00000000	0.0
3	0x00000000	0.0
4	0x00000000	0.0
5	0x00000000	0.0
6	0x00000000	0.0
7	0x00000000	0.0
8	0x00000000	0.0
9	0x00000000	0.0
10	0x00000000	0.0
11	0x00000000	0.0
12	0x00000000	0.0
13	0x3d2383e9	0.03992072
14	0x00000000	0.0
15	0x00000000	0.0
16	0x00000000	0.0
17	0x00000000	0.0
18	0x00000000	0.0
19	0x00000000	0.0
20	0x00000000	0.0
21	0x00000000	0.0
22	0x00000000	0.0
23	0x00000000	0.0
24	0x00000000	0.0
25	0x00000000	0.0
26	0x00000000	0.0
27	0x00000000	0.0
28	0x00000000	0.0
29	0x00000000	0.0
30	0x00000000	0.0
31	0x00000000	0.0
32	0x00000000	0.0
33	0x00000000	0.0
34	0x00000000	0.0
35	0x00000000	0.0
36	0x00000000	0.0
37	0x3daafa2c	0.08348498
38	0x00000000	0.0
39	0x00000000	0.0
40	0x00000000	0.0
41	0x00000000	0.0
42	0x3cc57ebc	0.024108283
43	0x00000000	0.0
44	0x00000000	0.0
45	0x00000000	0.0
46	0x00000000	0.0
47	0x00000000	0.0
48	0x00000000	0.0
49	0x00000000	0.0
50	0x00000000	0.0
51	0x00000000	0.0
52	0x00000000	0.0
53	0x00000000	0.0
54	0x3d8fab1c	0.070150584
55	0x00000000	0.0
56	0x00000000	0.0
57	0x00000000	0.0
58	0x00000000	0.0
59	0x00000000	0.0
60	0x00000000	0.0
61	0x00000000	0.0
62	0x00000000	0.0
63	0x00000000	0.0
64	0x00000000	0.0
65	0x00000000	0.0
66	0x00000000	0.0
67	0x00000000	0.0
68	0x00000000	0.0
69	0x00000000	0.0
70	0x00000000	0.0
71	0x00000000	0.0
72	0x00000000	0.0
73	0x00000000	0.0
74	0x00000000	0.0
75	0x00000000	0.0
76	0x00000000	0.0
77	0x00000000	0.0
78	0x00000000	0.0
79	0x00000000	0.0
80	0x00000000	0.0
81	0x00000000	0.0
82	0x00000000	0.0
83	0x00000000	0.0
84	0x00000000	0.0
85	0x00000000	0.0
86	0x00000000	0.0
87	0x00000000	0.0
88	0x00000000	0.0
89	0x00000000	0.0
90	0x00000000	0.0
91	0x00000000	0.0
92	0x00000000	0.0
93	0x00000000	0.0
94	0x00000000	0.0
95	0x00000000	0.0
96	0x00000000	0.0
97	0x00000000	0.0
98	0x00000000	0.0
99	0x00000000	0.0
100	0x00000000	0.0
101	0x00000000	0.0
102	0x00000000	0.0
103	0x00000000	0.0
104	0x00000000	0.0
105	0x00000000	0.0
106	0x00000000	0.0
107	0x00000000	0.0
108	0x00000000	0.0
109	0x00000000	0.0
110	0x00000000	0.0
111	0x3d20562b	0.039144676
112	0x00000000	0.0
113	0x00000000	0.0
114	0x00000000	0.0
115	0x00000000	0.0
116	0x3dab9221	0.08377481
117	0x00000000	0.0
118	0x00000000	0.0
119	0x00000000	0.0
120	0x00000000	0.0
121	0x00000000	0.0
122	0x00000000	0.0
123	0x00000000	0.0
124	0x00000000	0.0
125	0x3cb6de62	0.022322837
126	0x00000000	0.0
127	0x00000000	0.0
128	0x00000000	0.0
129	0x00000000	0.0
130	0x00000000	0.0
131	0x00000000	0.0
132	0x00000000	0.0
133	0x00000000	0.0
134	0x00000000	0.0
135	0x00000000	0.0
136	0x00000000	0.0
137	0x00000000	0.0
138	0x00000000	0.0
139	0x00000000	0.0
140	0x3cad232d	0.021134937
141	0x00000000	0.0
142	0x3de6887f	0.11256503
143	0x00000000	0.0
144	0x00000000	0.0
145	0x3e10e050	0.14148068
146	0x00000000	0.0
147	0x00000000	0.0
148	0x00000000	0.0
149	0x00000000	0.0
150	0x00000000	0.0
151	0x00000000	0.0
152	0x00000000	0.0
153	0x00000000	0.0
154	0x00000000	0.0
155	0x00000000	0.0
156	0x00000000	0.0
157	0x00000000	0.0
158	0x00000000	0.0
159	0x00000000	0.0
160	0x00000000	0.0
161	0x00000000	0.0
162	0x00000000	0.0
163	0x00000000	0.0
164	0x00000000	0.0
165	0x00000000	0.0
166	0x00000000	0.0
167	0x00000000	0.0
168	0x00000000	0.0
169	0x00000000	0.0
170	0x00000000	0.0
171	0x00000000	0.0
172	0x00000000	0.0
173	0x00000000	0.0
174	0x00000000	0.0
175	0x00000000	0.0
176	0x00000000	0.0
177	0x00000000	0.0
178	0x00000000	0.0
179	0x00000000	0.0
180	0x00000000	0.0
181	0x00000000	0.0
182	0x00000000	0.0
183	0x00000000	0.0
184	0x00000000	0.0
185	0x00000000	0.0
186	0x00000000	0.0
187	0x00000000	0.0
188	0x00000000	0.0
189	0x00000000	0.0
190	0x00000000	0.0
191	0x00000000	0.0
192	0x00000000	0.0
193	0x00000000	0.0
194	0x00000000	0.0
195	0x00000000	0.0
196	0x00000000	0.0
197	0x00000000	0.0
198	0x00000000	0.0
199	0x3cb9dc7b	0.022688141
200	0x00000000	0.0
201	0x00000000	0.0
202	0x00000000	0.0
203	0x00000000	0.0
204	0x00000000	0.0
205	0x00000000	0.0
206	0x00000000	0.0
207	0x00000000	0.0
208	0x3ed5002c	0.41601694
209	0x3d97fc36	0.07421152
210	0x00000000	0.0
211	0x00000000	0.0
212	0x00000000	0.0
213	0x00000000	0.0
214	0x3d8b02e0	0.06787658
215	0x00000000	0.0
216	0x00000000	0.0
217	0x00000000	0.0
218	0x00000000	0.0
219	0x00000000	0.0
220	0x00000000	0.0
221	0x00000000	0.0
222	0x00000000	0.0
223	0x00000000	0.0
224	0x00000000	0.0
225	0x00000000	0.0
226	0x00000000	0.0
227	0x00000000	0.0
228	0x00000000	0.0
229	0x00000000	0.0
230	0x00000000	0.0
231	0x00000000	0.0
232	0x00000000	0.0
233	0x00000000	0.0
234	0x00000000	0.0
235	0x3ddd0642	0.10792209
236	0x00000000	0.0
237	0x00000000	0.0
238	0x00000000	0.0
239	0x00000000	0.0
240	0x00000000	0.0
241	0x00000000	0.0
242	0x00000000	0.0
243	0x00000000	0.0
244	0x00000000	0.0
245	0x00000000	0.0
246	0x00000000	0.0
247	0x00000000	0.0
248	0x00000000	0.0
249	0x00000000	0.0
250	0x00000000	0.0
251	0x00000000	0.0
252	0x00000000	0.0
253	0x00000000	0.0
254	0x00000000	0.0
255	0x00000000	0.0

gcn.weight f4 [1, 32]
0	0x3ecfb64a	0.40568763
1	0x3ee33c24	0.4438182
2	0xbe5492af	-0.2075908
3	0x3ee67bae	0.45016235
4	0xbe612a7f	-0.21988867
5	0x3e81d230	0.25355673
6	0xbe8cf31f	-0.27529237
7	0x3ead9032	0.33899075
8	0x3ef39fda	0.47582895
9	0xbeae9251	-0.34096006
10	0x3ee8ed1c	0.454934
11	0x3e651bb4	0.22373849
12	0x3ed29bbd	0.41134444
13	0x3e653b68	0.22385943
14	0x3ea3495f	0.31891915
15	0xbe3f7983	-0.18698697
16	0x3ed62a31	0.41829064
17	0x3e78f174	0.24310857
18	0xbe885b59	-0.26632193
19	0x3e7b380e	0.24533102
20	0xbe8adf48	-0.27123475
21	0xbe3aec45	-0.18254192
22	0xbe8a6b44	-0.27034962
23	0x3ebca79b	0.36846623
24	0xbeba9b12	-0.36446434
25	0xbe8469f9	-0.258621
26	0xbe60c1d8	-0.21948946
27	0xbe9e6e5e	-0.30943578
28	0x3e6a6619	0.2289051
29	0xbed867bc	-0.42266643
30	0x3edd7e2c	0.43260324
31	0xbec15a02	-0.37763983

lstm.weight_ih_l0 f4 [256, 32]
0	0xbe027960	-0.12741613
1	0xbe5c6ddb	-0.21526282
2	0x3cbff1c6	0.023430716
3	0xbe081eb2	-0.1329296
4	0x3d915887	0.070969634
5	0xbdb09776	-0.08622639
6	0x3dac7a0d	0.08421717
7	0xbe8a5533	-0.27018127
8	0xbe5d4cfa	-0.21611395
9	0xbb95b192	-0.004568287
10	0xbdf598fa	-0.119920686
11	0xbe335101	-0.1751137
12	0xbd7bc68f	-0.061468657
13	0xbeb65756	-0.35613507
14	0xbd841284	-0.06448844
15	0x3d9ff3d4	0.078101784
16	0xbe01e855	-0.12686284
17	0xbeb0e13f	-0.3454685
18	0xbdf8a1a5	-0.12140206
19	0xbe74aba0	-0.23893595
20	0xbc10c99c	-0.00883713
21	0x3e25fa3f	0.16208743
22	0x3d151f2f	0.036406692
23	0xbe25e928	-0.16202223
24	0x3dfb6c8a	0.122765616
25	0x3d80fa54	0.06297746
26	0x3e039c8e	0.1285269
27	0xbd1d35d8	-0.038381428
28	0xbe95d2fc	-0.2926253
29	0xbbee785e	-0.0072775325
30	0xbdc97e9b	-0.09838601
31	0xbd809c62	-0.06279828
32	0x3bbdcf0b	0.0057925037
33	0xbdb7d76f	-0.089766376
34	0x3e8e182f	0.27752826
35	0xbe401ec6	-0.18761739
36	0x3de82ad6	0.11336295
37	0xbdcb047a	-0.09912963
38	0x3e8dfa83	0.27730188
39	0xbc9eddd8	-0.019392893
40	0x3dd0f179	0.10202307
41	0x3dccb578	0.0999555
42	0xbe44883f	-0.19192599
43	0xbe188c68	-0.1489731
44	0xbe341c02	-0.17588809
45	0xbb15e699	-0.0022873043
46	0xbd064853	-0.032783817
47	0x3e9b21d0	0.30299234
48	0xbe02235d	-0.12708803
49	0xbde9505e	-0.11392282
50	0x3e794221	0.24341632
51	0xbd95a018	-0.07305926
52	0x3e824810	0.25445604
53	0x3e288da1	0.16460277
54	0x3e5dab34	0.2164734
55	0xbe2a67f6	-0.1664122
56	0x3decb635	0.11558191
57	0x3e5ed27d	0.21759982
58	0x3e529459	0.20564403
59	0x3e1b3d84	0.15160185
60	0x3d31fae2	0.04345215
61	0x3e8c27b0	0.2737403
62	0xbde68a90	-0.112568974
63	0x3d9eaaab	0.07747396
64	0x3e26b624	0.16280419
65	0x3cda23de	0.026628431
66	0xbcb57b7f	-0.022153614
67	0xbd880d5a	-0.066431716
68	0xbcf5f676	-0.030024748
69	0x3dd8c436	0.10584299
70	0xba411c8a	-0.00073666184
71	0xbdc7cc23	-0.09755733
72	0xbb55d269	-0.0032626635
73	0xbdc4b8d6	-0.09605567
74	0xbdbfb9e8	-0.09361631
75	0xbc56519d	-0.013080982
76	0xbdb1956d	-0.08671079
77	0xbbcb4a7b	-0.006203947
78	0x3e09db8d	0.13462658
79	0x3d4643f8	0.048404664
80	0xb9fe5d4d	-0.0004851617
81	0xbd334634	-0.043768123
82	0xbd2f8ffe	-0.04286193
83	0xbc664a5d	-0.0140558155
84	0x3d44f3ff	0.048084255
85	0xbdca9ca0	-0.09893155
86	0xbd81a4e8	-0.063302815
87	0xbc0f6531	-0.008752153
88	0xbd2854eb	-0.04109661
89	0xbc0a61c2	-0.008446159
90	0xbc32eae9	-0.010920265
91	0xbdcce037	-0.10003703
92	0xbccca5da	-0.024981428
93	0xbd0d7571	-0.03453583
94	0x3b279075	0.002556828
95	0xbdb40f7e	-0.087920174
96	0x3e16996c	0.14706963
97	0x3d705c01	0.05868149
98	0x3e34ba50	0.17649198
99	0x3d1e39e2	0.03862942
100	0xbd45ca83	-0.048288833
101	0x3e286e71	0.1644838
102	0x3d1259fb	0.035730343
103	0x3bc4414f	0.0059892307
104	0xbde1e14d	-0.11029301
105	0xbddf11b6	-0.1089205
106	0x3d446a61	0.047953013
107	0x3c7c6926	0.015405929
108	0x3dc2a31c	0.09503767
109	0xbd06ba59	-0.03289256
110	0x3db54a6b	0.08852085
111	0xbd472317	-0.04861745
112	0xbd038d54	-0.032117203
113	0x3dc133fc	0.09433743
114	0x3d94018c	0.072268575
115	0x3dfd3318	0.12363261
116	0x3e2cf2e2	0.16889527
117	0xbd828a24	-0.063740045
118	0x3df25cfd	0.11834142
119	0x3c50cffa	0.012744898
120	0x3d45384c	0.048149392
121	0xbd6a140f	-0.057148036
122	0x3e3c3617	0.18380009
123	0xbd2b7f5b	-0.041869503
124	0x3e04867c	0.12941927
125	0x3d94c5a8	0.072642624
126	0x3d5d1691	0.0539766
127	0xbd53cefd	-0.05171107
128	0x3d41dd06	0.047329925
129	0xbd26b573	-0.040700387
130	0x3db43590	0.08799279
131	0xbe98382e	-0.29730362
132	0x3e2a6d5e	0.16643283
133	0x3da0aeb8	0.07845825
134	0xbd269ac4	-0.04067494
135	0x3c857935	0.016293148
136	0x3e443242	0.19159797
137	0x3d20c993	0.039254736
138	0x3e4c825b	0.19971602
139	0x3d01409f	0.031555768
140	0x3e8963f1	0.26834062
141	0xbcbeea47	-0.023305072
142	0xbe145010	-0.14483666
143	0x3dd67618	0.10471743
144	0x3c4615b3	0.012090134
145	0x3e2cafb3	0.16863899
146	0x3dda0d5a	0.10647078
147	0xbccbbad7	-0.024869366
148	0x3e39d7a5	0.18148668
149	0x3e176733	0.14785461
150	0x3dfc5f73	0.12322893
151	0xbdebe36f	-0.11517989
152	0x3dff1184	0.12454513
153	0x3dbbdd38	0.091730535
154	0x3df524d7	0.11969917
155	0x3c12a160	0.008949608
156	0xbd347ca1	-0.044064168
157	0x3d222b3f	0.039592024
158	0x3cff9a88	0.031201616
159	0x3e11a74b	0.14223973
160	0xbe7d4b7f	-0.2473583
161	0xbe26cd7b	-0.16289322
162	0xbb78137b	-0.0037853408
163	0xbe844f07	-0.25841543
164	0x3ce308e7	0.027714206
165	0xbed6cdec	-0.4195398
166	0x3d0419ff	0.032251354
167	0xbecbf0b5	-0.39832082
168	0xbee2bc88	-0.44284463
169	0xbd979b50	-0.074026704
170	0xbeb308d4	-0.34967673
171	0xbeca78f1	-0.39545396
172	0xbe8688c8	-0.2627623
173	0xbf00ead7	-0.5035834
174	0xbee5a07d	-0.44849005
175	0xbd8edda6	-0.0697587
176	0xbee61571	-0.44938233
177	0xbe9d73d4	-0.30752432
178	0x3d8c6c0e	0.06856547
179	0xbeb5e0bc	-0.3552302
180	0xbdeb8dce	-0.115016565
181	0xbd218cce	-0.039440922
182	0xbd101aca	-0.035181798
183	0xbe597602	-0.21236423
184	0xbc982008	-0.018569961
185	0xbc87ba5d	-0.016568357
186	0x3d9f9fd9	0.077941604
187	0xbd549862	-0.051903136
188	0xbf0ac375	-0.54204494
189	0x3d559a1a	0.052148916
190	0xbeaa879e	-0.33306593
191	0xbd08fe60	-0.033445716
192	0xbe1725d1	-0.1476052
193	0x3dc8d3b7	0.098060064
194	0x3e0795c4	0.13240725
195	0x3bd8f6c9	0.006621216
196	0xbdc32a70	-0.09529579
197	0xbdf2fbbd	-0.118644215
198	0xbdec1c4c	-0.11528835
199	0x3ddf072d	0.108900405
200	0x3d3186b6	0.04334136
201	0x3e190bcb	0.14945905
202	0x3d315d0b	0.043301623
203	0x3db8dd40	0.09026575
204	0x3ccf137f	0.025277851
205	0xbdbd2bcf	-0.092368715
206	0xbdae0eec	-0.0849894
207	0xbdea03f7	-0.114265375
208	0x3db5c901	0.08876229
209	0xbc7ac202	-0.015305044
210	0xbd54d038	-0.051956385
211	0xbd60d8a5	-0.05489411
212	0x3c59526e	0.013264282
213	0xbd3326c6	-0.04373815
214	0xbd1c8276	-0.038210355
215	0x3d716b8a	0.058940448
216	0xbc39c624	-0.011338744
217	0x3ddf9b09	0.109182425
218	0xbd8e10ba	-0.06936784
219	0xbd7b744d	-0.06139021
220	0x3cc0095c	0.023441963
221	0xbcf4b3e7	-0.02987094
222	0xbcb978b0	-0.022640556
223	0xbdb3ac5d	-0.0877311
224	0x3d9c7a21	0.07640482
225	0xbd0c625b	-0.034273487
226	0x3d2aa68d	0.04166274
227	0x3ce4c8ec	0.027927838
228	0x3d83c614	0.06434265
229	0xbcb4023f	-0.021973727
230	0x3dcc2823	0.09968593
231	0xbccaf7bf	-0.024776338
232	0x3d485d23	0.048916947
233	0x3e013781	0.1261883
234	0x3b963d1f	0.004584923
235	0x3d6a9303	0.057269108
236	0xbc67daf3	-0.014151323
237	0xbd7ab4c1	-0.061207537
238	0x3daf1827	0.085495286
239	0xbe05cb15	-0.13065751
240	0x3da23a6e	0.07921301
241	0x3e1b0684	0.15139204
242	0x3e00b562	0.12569192
243	0x3c49316c	0.0122798495
244	0xbd5dcb86	-0.054149173
245	0x3c494bbf	0.012286126
246	0x3de87146	0.1134973
247	0xbdacd124	-0.08438328
248	0xbe0c612a	-0.1370894
249	0xbd292400	-0.041294098
250	0xbb929d5e	-0.004474326
251	0xbcc30a3c	-0.023808591
252	0x3c1d128d	0.009586942
253	0xbdf5c77a	-0.12000938
254	0xbdd0653c	-0.10175559
255	0x3d2f0d00	0.042737007

lstm.weight_hh_l0 f4 [256, 64]
0	0x3d8eb41a	0.069679454
1	0x3e57ac6d	0.21061869
2	0xbdd65d92	-0.10467066
3	0x3dc0c8bf	0.09413289
4	0x3d579e26	0.052641056
5	0x3d067eb8	0.032835692
6	0xbdbe45ec	-0.0929068
7	0x3db32239	0.08746762
8	0x3d7f68f4	0.06235595
9	0x3df4ce1f	0.11953377
10	0xbdb4b73b	-0.08824011
11	0xbb8fe977	-0.004391845
12	0x3cda113d	0.026619548
13	0xbdf2c0b4	-0.118531615
14	0x3d644672	0.055731244
15	0x3d4e4264	0.050356284
16	0xbd30c78e	-0.04315906
17	0x3d8f3994	0.06993404
18	0x3e58b296	0.21161875
19	0x3d907f39	0.07055516
20	0x3d0462e3	0.03232087
21	0xbbe6b9d1	-0.007041194
22	0xbcc10f66	-0.023566913
23	0xbeb8c7fd	-0.3609008
24	0x3dcd9aa7	0.10039263
25	0x3dfcd579	0.12345404
26	0xbd7e168a	-0.062033214
27	0x3d8d62be	0.06903599
28	0x3e01a95f	0.12662266
29	0xbd8c6a81	-0.068562515
30	0xbe1f3648	-0.1554805
31	0x3cebe0c0	0.028793693
32	0x3cff2f24	0.031150408
33	0x3defd497	0.1171047
34	0x3c0ebe2d	0.008712334
35	0x3e2bf70a	0.16793457
36	0xbd1bfdf4	-0.038083985
37	0x3dbf5f80	0.09344387
38	0x3d9a261e	0.075268015
39	0x3e35e2eb	0.17762344
40	0xbd9d723f	-0.07687806
41	0xbd36cace	-0.044627003
42	0xbda0bb47	-0.0784822
43	0x3d84b930	0.06480634
44	0x3da4c643	0.08045628
45	0xbdf440bc	-0.119264096
46	0xbda3b1ba	-0.07992883
47	0x3de3a525	0.11115483
48	0x3cca64d6	0.024706285
49	0xbd4da80d	-0.050209094
50	0x3e14dfa3	0.14538436
51	0xbd4f2632	-0.050573535
52	0xbda5afc8	-0.08090168
53	0xbda8b454	-0.0823752
54	0x3bd7b17b	0.0065824366
55	0x3de0a832	0.10969581
56	0x3e072bd8	0.13200319
57	0xbd7b044c	-0.061283395
58	0xbc32904f	-0.010898664
59	0xbd169211	-0.036760394
60	0xbe3583c9	-0.17726053
61	0x3d1006e7	0.035162833
62	0x3d8b7b6c	0.0681065
63	0x3d973d40	0.073847294
64	0xbe5982e9	-0.21241345
65	0x3dbd279d	0.09236071
66	0xbd86cd1a	-0.06582089
67	0x3c60c664	0.013719175
68	0x3dbae25a	0.091252044
69	0x3dbf9656	0.09354846
70	0x3dfbc427	0.122932725
71	0xbe2292db	-0.15876333
72	0xbc408aed	-0.0117518725
73	0xbce5778d	-0.028011108
74	0xbd96e66f	-0.073681705
75	0xbd0a1160	-0.033707976
76	0xbcb14850	-0.021640927
77	0x3c452076	0.012031665
78	0xbe05dac7	-0.13071738
79	0xbd0f349f	-0.034962293
80	0xbdc847d4	-0.09779325
81	0x3dd03c80	0.101677895
82	0x3c43b023	0.01194385
83	0x3d93460a	0.07191093
84	0xbc15566a	-0.009114841
85	0x3e0f68db	0.14004843
86	0x3d20e525	0.03928103
87	0xbcc3da1f	-0.02390772
88	0xbcad48f3	-0.021152949
89	0x3db261c2	0.08710052
90	0x3d911109	0.07083327
91	0x3d92d435	0.071693815
92	0xbe5b3050	-0.21405149
93	0x3d9b8a04	0.07594684
94	0x3dd7dc8e	0.10540114
95	0xbdbb531b	-0.091467105
96	0x3e051b57	0.1299871
97	0xbc9dfb56	-0.019284885
98	0x3d054556	0.032536827
99	0xbce2fb8f	-0.027707843
100	0x3df40f62	0.119169965
101	0xbdf314d3	-0.11869206
102	0x3d7d96cf	0.0619114
103	0x3ddf1535	0.10892717
104	0xbdaf342b	-0.08554872
105	0xbdbed56b	-0.0931805
106	0x3de0b7f6	0.10972588
107	0x3cf3200a	0.029678363
108	0x3dba197d	0.09086893
109	0x3df6fb1e	0.120596156
110	0x3d05d700	0.032675743
111	0x3dbfe304	0.09369472
112	0x3d9fb59b	0.0779831
113	0x3d440215	0.047853548
114	0xbbc81012	-0.0061054314
115	0x3d9351c9	0.07193334
116	0x3d0aa487	0.03384831
117	0x3cfbd9d8	0.030743524
118	0x3df2fd4a	0.11864717
119	0xbdcc8638	-0.09986538
120	0xbd39a23a	-0.045320727
121	0x3dad27fa	0.084548905
122	0xbe02ef15	-0.12786515
123	0xbcc8e894	-0.024524964
124	0xbd458c47	-0.048229482
125	0x3dfdb352	0.12387718
126	0x3d23f6cc	0.040030286
127	0xbc61d3a4	-0.013783369
128	0xbdb5d51b	-0.08878537
129	0x3dcb19d3	0.09917035
130	0x3e0ee4a7	0.13954411
131	0x3df576d0	0.11985552
132	0x3d3673e9	0.044544134
133	0x3e08a6ce	0.13344881
134	0xbd58d8f7	-0.05294129
135	0xbca699e3	-0.02033705
136	0xbe0ebff1	-0.13940407
137	0xbd9b4159	-0.075808235
138	0xbddda609	-0.10822684
139	0xbdf6a1e3	-0.12042596
140	0x3cb538ca	0.022121806
141	0x3d382fc4	0.044967428
142	0x3b87af4f	0.0041407715
143	0x3d90093d	0.07033012
144	0xbdb9f992	-0.09080805
145	0x3df5fb46	0.12010817
146	0x3e2e0235	0.1699303
147	0xbe31fbaf	-0.17381166
148	0x3da79050	0.08181822
149	0x3cbf134d	0.023324633
150	0xbdde39ac	-0.10850844
151	0x3ce34505	0.027742872
152	0x3cb9485d	0.022617513
153	0x3d247825	0.04015364
154	0xbcff3ce0	-0.031156957
155	0x3e3ebd49	0.18626894
156	0x3dce1697	0.100629024
157	0xbca463eb	-0.020067176
158	0xbd0b9116	-0.03407391
159	0xbdfd3514	-0.123636395
160	0x3ded4f67	0.115874104
161	0x3cefc398	0.029268071
162	0x3e112c1d	0.14176984
163	0x3e421f86	0.18957338
164	0xbcfb6692	-0.030688558
165	0x3d84cbd5	0.064841904
166	0x3da5a93c	0.080889195
167	0x3cb9b973	0.022671437
168	0xbd5f7d06	-0.05456259
169	0xbc773db6	-0.015090397
170	0x3da60905	0.08107189
171	0x3d8c358d	0.068461515
172	0xbd071acf	-0.03298455
173	0x3dc6e6b6	0.09711973
174	0x3e0447bc	0.1291799
175	0x3db32326	0.087469384
176	0x3ba7cb5f	0.0051206793
177	0x3c884cc6	0.01663817
178	0xbd0950fc	-0.0335245
179	0x3dc906b8	0.098157346
180	0xbdc7965c	-0.09745476
181	0xbe0a24d6	-0.13490614
182	0x3d99ef2e	0.07516323
183	0xbde4bc74	-0.11168757
184	0x3d56c3f8	0.052432984
185	0xbd82d889	-0.06388957
186	0xbb98a25e	-0.0046580276
187	0xbd1733e3	-0.036914717
188	0x3d9cf572	0.076640025
189	0xbd6b89c7	-0.05750444
190	0x3ab0d32a	0.0013490666
191	0xbc1612bc	-0.00915974
192	0xbe365015	-0.17803986
193	0x3df1d948	0.11809021
194	0xbcb59369	-0.022165017
195	0xbdd6deab	-0.10491689
196	0xbde211e6	-0.1103857
197	0x3c9e31cf	0.01931086
198	0x3dd4c281	0.10388661
199	0xbd929056	-0.07156436
200	0xbdcc2a39	-0.09968991
201	0xbe165080	-0.14679146
202	0x3cae4e26	0.021277498
203	0xbd351a37	-0.044214454
204	0xbd2ac2cc	-0.04168968
205	0x3d9d0bfc	0.076683015
206	0x3d294218	0.041322798
207	0x3d7b0124	0.061280385
208	0x3bf05ee1	0.007335529
209	0x3e3de74d	0.18545265
210	0x3d136315	0.035983164
211	0xbc21873b	-0.009858902
212	0x3d1485e0	0.036260486
213	0xbd1e66bc	-0.038672194
214	0x3d4598b1	0.04824132
215	0xbe203050	-0.1564343
216	0x3d95f725	0.0732253
217	0xbe07c87d	-0.13260074
218	0xbdf82442	-0.12116291
219	0x3c9e6a62	0.019337837
220	0x3d062151	0.032746617
221	0xbe49ab0d	-0.19694157
222	0xbd85ce41	-0.065334804
223	0xbd1255b7	-0.035726275
224	0xbd4a026a	-0.04931871
225	0xbc03a3c5	-0.008034651
226	0x3df44e57	0.11929005
227	0x3e0cf9da	0.13767186
228	0xbd0f4f98	-0.034988016
229	0xbe13811c	-0.1440472
230	0xbd6ed61a	-0.058309652
231	0x3d0ad198	0.03389129
232	0xbdf43a81	-0.11925221
233	0xbdba67ef	-0.09101855
234	0x3d9e4ab2	0.07729091
235	0xbd8d33e7	-0.06894665
236	0x3d5fc04e	0.054626755
237	0xbdabf409	-0.083961554
238	0x3cb77b24	0.022397585
239	0xbd23fb3d	-0.04003452
240	0x3dd95684	0.10612205
241	0xbd901991	-0.070361264
242	0xbdb4e9b5	-0.088336386
243	0x3d35f805	0.044425983
244	0xbcadfd79	-0.02123903
245	0xbc4e6b50	-0.0125988275
246	0x3e132dc5	0.14372928
247	0x3d7bcf6e	0.061477117
248	0x3cc54e36	0.024085145
249	0x3d8257e7	0.06364422
250	0xbd91e7b1	-0.0712427
251	0xbd924643	-0.071423076
252	0xbb81596b	-0.003947427
253	0x3d96177c	0.07328698
254	0x3d324e5d	0.043531764
255	0x3c86e813	0.016468083

lstm.bias_ih_l0 f4 [256]
0	0xbe0d7b87	-0.13816653
1	0xbd618697	-0.055059996
2	0xbe291d0c	-0.16514987
3	0x3c3a663d	0.011376915
4	0xbd39b69f	-0.045340177
5	0x3dd19c7d	0.10234926
6	0xbc8e2d50	-0.017355591
7	0xbdf5f2a0	-0.12009168
8	0xbe2af3e1	-0.16694595
9	0xbd865c39	-0.06560559
10	0xbd989c14	-0.074516445
11	0xbdc819cd	-0.09770546
12	0x3d575be6	0.052577876
13	0x3dddc54f	0.10828649
14	0x3e911d2a	0.28342563
15	0x3ca830e9	0.020531135
16	0x3e680713	0.22658949
17	0xbcbdf492	-0.02318791
18	0x3d92a3f8	0.07160181
19	0xbe729f4d	-0.23693581
20	0xbe2025d0	-0.15639424
21	0xbdd383ad	-0.103278495
22	0xbd457503	-0.048207294
23	0x3e7f7c89	0.2494985
24	0xbd7de783	-0.061988365
25	0xbd7d109b	-0.061783414
26	0xbe09c2b7	-0.13453184
27	0x3dd90ee7	0.105985455
28	0xbe283439	-0.16426171
29	0xbd41e260	-0.04733503
30	0x3e048dfe	0.1294479
31	0x3d9ace35	0.07558862
32	0x3e74eccb	0.23918454
33	0xbdb3e6ef	-0.087842815
34	0x3d32beac	0.04363887
35	0x3dea9ce4	0.11455706
36	0x3dfab158	0.12240857
37	0xbe0af3da	-0.13569584
38	0xbd4f3f01	-0.050597195
39	0x3e2e7b56	0.17039236
40	0xbda597d0	-0.080855966
41	0xbd2a2357	-0.04153761
42	0xbdf084e9	-0.117441006
43	0x3d5aaa0a	0.053384818
44	0x3d9a95c3	0.07548096
45	0x3e2fbf91	0.1716292
46	0x3dbaea15	0.09126679
47	0xbc9bdb50	-0.019025475
48	0xbd951125	-0.07278661
49	0x3b94028d	0.0045169056
50	0x3da13bd9	0.07872743
51	0x3d74efac	0.05979888
52	0x3d708152	0.05871708
53	0x3dce3a96	0.10069768
54	0xbdd65bea	-0.1046675
55	0x3df52cd8	0.11971444
56	0x3de1977a	0.1101522
57	0xbcebc567	-0.028780652
58	0x3d70911c	0.058732137
59	0x3c905502	0.01761866
60	0x3e8be602	0.2732392
61	0xbe121529	-0.14265884
62	0xbd3a6060	-0.045502067
63	0x3d6c5cce	0.057705693
64	0xbdf6f1b9	-0.12057824
65	0x3ccdef07	0.025138391
66	0xbe231e3a	-0.159295
67	0xbdcc8b6b	-0.09987529
68	0xbe4d53a1	-0.20051433
69	0xbdee2379	-0.116278596
70	0xbd70cfa1	-0.05879176
71	0xbe240864	-0.16018826
72	0x3d1c77d0	0.0382002
73	0xbcf052a3	-0.02933628
74	0x3da6fa8d	0.081532575
75	0xbd0074ba	-0.03136132
76	0xbd973639	-0.07383389
77	0xbe27c2b4	-0.16382867
78	0xbe25e6c0	-0.16201305
79	0xbe509f0c	-0.20373172
80	0x3e31c212	0.17359188
81	0x3c3c2819	0.011484169
82	0x3ebc38b1	0.36762002
83	0xbcb1baba	-0.021695483
84	0x3d3cd485	0.046101112
85	0x3e04ad73	0.1295679
86	0xbdf3cbb3	-0.11904087
87	0x3d91e022	0.07122828
88	0xbd79590c	-0.060875937
89	0x3cd5c630	0.02609548
90	0x3cd7f7c5	0.026363263
91	0xbcd3bb77	-0.025846226
92	0x3d9e88e6	0.07740955
93	0x3e196107	0.14978419
94	0xbdcfa017	-0.101379566
95	0x3d03c647	0.032171514
96	0xbc76424a	-0.015030453
97	0xbdec6bfa	-0.115440324
98	0xbe0a334b	-0.13496129
99	0x3e0051b5	0.12531169
100	0xbdfbf03b	-0.1230168
101	0xbdfe8c5f	-0.124291174
102	0xbe030e65	-0.1279846
103	0xbdb06e96	-0.086148426
104	0xbd846c50	-0.064659715
105	0xbd585fdf	-0.052825805
106	0xbe1f8c54	-0.15580875
107	0xbe21fcb9	-0.15819062
108	0xbe0d8f02	-0.13824084
109	0xbe6cc2d4	-0.23121196
110	0x3d36bd6f	0.04461425
111	0xbd4c40c2	-0.049866445
112	0xbdb398c5	-0.08769373
113	0xbce6b560	-0.028162658
114	0x3ce9d24e	0.028542664
115	0xbd715d1e	-0.058926694
116	0xbe1ee547	-0.1551715
117	0xbe199376	-0.14997658
118	0x3d83beaa	0.06432851
119	0x3d335d38	0.043790072
120	0x3d40c8f6	0.04706665
121	0xbdf31c2b	-0.11870607
122	0xbe2f5dcd	-0.17125626
123	0x3d2a5f1c	0.04159461
124	0xbe28ba87	-0.16477405
125	0x3bc590b1	0.0060292115
126	0x3de0d147	0.109774165
127	0xbb2ae4f0	-0.0026076399
128	0xbd915c38	-0.070976675
129	0x3db26f21	0.087126024
130	0xbc900c51	-0.017583998
131	0xbcfb3fa8	-0.030670002
132	0x3b281f9b	0.0025653604
133	0x3c8206e7	0.015872432
134	0xbd073eaf	-0.033018764
135	0x3d1b23dd	0.037876
136	0x3dcb9e27	0.099422745
137	0x3c3abc84	0.011397485
138	0x3e073729	0.13204636
139	0xbd05f513	-0.032704424
140	0xbdb2186d	-0.08696065
141	0xbd7d254c	-0.061803147
142	0xbdd932fa	-0.10605426
143	0xbd8e33af	-0.069434516
144	0x3ce4e9c3	0.027943498
145	0xbdf01ea0	-0.11724591
146	0x3cac535a	0.021035839
147	0x3cc47b15	0.023984471
148	0x3da55d6d	0.0807446
149	0x3d171bb9	0.036891673
150	0xbd354229	-0.04425255
151	0xbd392ec3	-0.04521061
152	0xbd7e58c1	-0.06209636
153	0x3d43f772	0.047843404
154	0x3de9e4e0	0.114206076
155	0xbd904a0d	-0.07045374
156	0xbcba17ac	-0.022716366
157	0x3e288275	0.16456015
158	0xbd94a0ee	-0.072572574
159	0xbdbdeb98	-0.092734516
160	0xbb0e9adc	-0.0021759784
161	0x3d9c147d	0.07621095
162	0x3dd9b19f	0.10629582
163	0xbe4b009c	-0.19824451
164	0xbd608093	-0.054810118
165	0x3e1f8963	0.15579753
166	0xbcfc21cf	-0.03077784
167	0x3e2a63b4	0.16639596
168	0xbcf5bc7d	-0.029997105
169	0x3d16ffa0	0.036864877
170	0x3cf223ed	0.029558146
171	0xbb1b778e	-0.0023722383
172	0xbc662abc	-0.014048275
173	0x3cd3542c	0.025796972
174	0xbbcbb0ff	-0.006216168
175	0x3d213b69	0.0393633
176	0x3d315c28	0.043300778
177	0x3cf01214	0.029305495
178	0xbde0a49a	-0.10968895
179	0x3db53a30	0.08848989
180	0xbba4adb2	-0.005025589
181	0x3cae1eee	0.021254983
182	0xbe0caaa6	-0.13736972
183	0x3dbf240b	0.093330465
184	0x3d960555	0.07325236
185	0xbc7cce12	-0.01542999
186	0xbdd85250	-0.10562575
187	0x3e3226ae	0.17397568
188	0xbe0f1bf3	-0.13975506
189	0x3ce34159	0.027741121
190	0x3e1d106b	0.15338294
191	0x3d8ef3b7	0.06980079
192	0xbd5b86ac	-0.05359523
193	0x3da40c60	0.08010173
194	0xbe150139	-0.14551248
195	0xbd3d206f	-0.04617351
196	0xbd1c3eca	-0.038145818
197	0x3daeee26	0.08541517
198	0x3dbc74f0	0.092019916
199	0xbd2d6c77	-0.04233977
200	0xbcbddcac	-0.023176514
201	0xba89f812	-0.0010526201
202	0xbc7c937f	-0.015416025
203	0x3d5db79d	0.054130185
204	0xbca40a6c	-0.0200245
205	0x3d4e5951	0.050378148
206	0x3e3fa99b	0.18717043
207	0x3d8592f0	0.06522167
208	0x3e30d4cd	0.17268677
209	0x3e16dab2	0.14731863
210	0x3e0bddb1	0.13658787
211	0xbd3e920b	-0.046525996
212	0xbb81d09f	-0.003961637
213	0x3dcdb311	0.1004392
214	0xbc3613f1	-0.011113153
215	0x3e976b71	0.2957416
216	0x3d938fe6	0.07205181
217	0x3832a58b	4.259268e-05
218	0x3db4a134	0.088198096
219	0x3d6e5836	0.058189593
220	0xbd0764d5	-0.033055145
221	0x3c69ad38	0.01426249
222	0x3e829f1a	0.2551201
223	0xbc9f03da	-0.019411016
224	0x3e9e391d	0.3090295
225	0xbcd928c8	-0.026508704
226	0x3e41b7d9	0.18917789
227	0xbcb0338e	-0.021508958
228	0x3e08966f	0.13338636
229	0x3d7cc956	0.061715446
230	0x3dd11935	0.10209886
231	0x3e8eb1c9	0.27870014
232	0xbd97d4df	-0.07413649
233	0xbc8720bd	-0.016495103
234	0xbdef4e7f	-0.11684894
235	0x3c279db5	0.010230471
236	0x3d52ff26	0.05151286
237	0x3eaf6c8c	0.34262502
238	0xbc924bf7	-0.017858488
239	0x3e13babd	0.14426704
240	0x3d5e0fba	0.054214217
241	0xbda91ff0	-0.08258045
242	0xbdebef95	-0.11520306
243	0xbcbac2bb	-0.022797933
244	0xbc52e184	-0.01287115
245	0x3d513caf	0.051083263
246	0x3dbd34a9	0.0923856
247	0x3ca5f311	0.020257505
248	0x3c7b2024	0.015327487
249	0x3df92b75	0.12166492
250	0xbd0376b6	-0.032095633
251	0x3dbd456f	0.09241759
252	0x3e25ca92	0.16190556
253	0xbdf92fc9	-0.121673174
254	0x3dfcf6f1	0.12351788
255	0xbd943c4d	-0.07238064

lstm.bias_hh_l0 f4 [256]
0	0x3daafae8	0.08348638
1	0x3d3f7e4f	0.046751317
2	0x3d118ad1	0.035532776
3	0x3e032db8	0.12810409
4	0x3c3c7aab	0.011503856
5	0xbc7c2b4a	-0.01539118
6	0xbc2dee30	-0.01061587
7	0xbe058917	-0.13040577
8	0xbc7ff802	-0.0156230945
9	0xbdff5af7	-0.12468522
10	0x3dc2e75b	0.09516784
11	0xbc8b5bbf	-0.017011521
12	0x3dbbae9f	0.09164166
13	0x3d8b7c73	0.06810846
14	0x3e377554	0.17915851
15	0x3e4086f1	0.18801476
16	0x3d505ed1	0.050871674
17	0xbdd43bfd	-0.10363004
18	0x3d63954c	0.055562302
19	0xbd12d8e3	-0.03585137
20	0x3af9fb1a	0.0019072026
21	0xbdb050ad	-0.08609138
22	0x3b44d03e	0.0030031349
23	0x3ecc8c69	0.39950874
24	0xbe2b080b	-0.16702287
25	0x3d6a0ba5	0.05714001
26	0xbd1c165f	-0.038107272
27	0x3d3b7019	0.0457612
28	0xbe453936	-0.19260105
29	0x3d19c4c2	0.03754116
30	0x3e3feb46	0.18742093
31	0x3da7d75b	0.08195373
32	0x3ead0a7b	0.33797058
33	0xbd5e32d6	-0.0542477
34	0x3e78567c	0.24251741
35	0xbccd08d3	-0.025028622
36	0x3c2e87a0	0.010652453
37	0xbd02c38e	-0.031924777
38	0xbde50f60	-0.11184573
39	0x3ea082a1	0.31349662
40	0x3d31ab9f	0.04337656
41	0xbdb11158	-0.08645886
42	0xbe1cc9fc	-0.15311426
43	0xbbb6c1a7	-0.0055772844
44	0x3e1bdaca	0.1522018
45	0x3e701ce5	0.23448522
46	0xbd1575d1	-0.03648931
47	0x3d9533ca	0.072852686
48	0x3d24ea86	0.04026272
49	0x3dd0d6bd	0.10197208
50	0x3de46d9b	0.11153718
51	0x3e09e550	0.13466382
52	0x3ca17f43	0.019714003
53	0xbcde115c	-0.027107887
54	0x3d5b69d1	0.05356771
55	0xbcd29f76	-0.025710803
56	0xbdbae388	-0.091254294
57	0xbd9d8211	-0.07690824
58	0xbe03ace2	-0.12858918
59	0xbdd64c91	-0.10463823
60	0x3e5b140b	0.21394365
61	0xbcc1efec	-0.023673974
62	0xbcc200d4	-0.023682036
63	0xbdd1c64c	-0.102429
64	0x3c78d4f7	0.0151874935
65	0x3c6c0b90	0.014407054
66	0xbcbe028d	-0.023194576
67	0xbdfa4b1a	-0.12221356
68	0xbd15e6b4	-0.03659697
69	0xbdcde396	-0.10053174
70	0x3da38d9a	0.07985993
71	0xbd26d226	-0.040727757
72	0xbe190ce6	-0.14946327
73	0xba6d1324	-0.00090436847
74	0x3df20d9f	0.11819004
75	0xbdebd168	-0.115145504
76	0xbc0cd5f0	-0.008595929
77	0xbdb62e1c	-0.088955134
78	0xbe76e0aa	-0.2410914
79	0xbdf897d7	-0.12138336
80	0x3e7ad6e3	0.24496035
81	0x3e53224a	0.20618549
82	0x3e93254a	0.28739387
83	0xbc708cd7	-0.014682016
84	0xbd86a9ce	-0.065753564
85	0x3e10169e	0.14071128
86	0xbd7a3095	-0.061081488
87	0x3df374f8	0.118875444
88	0xbd832b8a	-0.06404789
89	0x3d0c5cd0	0.0342682
90	0x3d83f371	0.06442917
91	0x3c86d29c	0.016457848
92	0xbb36904d	-0.0027857006
93	0x3dfa9c84	0.12236884
94	0xbe288ee6	-0.16460761
95	0xbc3c0301	-0.011475326
96	0xbd6c143c	-0.057636485
97	0xbd3d552f	-0.046223816
98	0xbe678557	-0.22609459
99	0x3d57dfca	0.052703656
100	0xbe3d288a	-0.18472496
101	0xbe2167f7	-0.15762316
102	0xbcbe3f8a	-0.023223657
103	0xbe650a4a	-0.22367206
104	0xbe465a4e	-0.19370386
105	0xbddf80cc	-0.10913238
106	0xbe05dc0e	-0.13072225
107	0xbe6b258f	-0.22963546
108	0xbbe6a4d4	-0.007038692
109	0xbdbe2509	-0.09284408
110	0xbd12c522	-0.03583253
111	0xbe2d26fa	-0.169094
112	0x3d5f9233	0.054582786
113	0x3d9e05f3	0.077159785
114	0x3e3da4b4	0.1851986
115	0x3c459ab8	0.012060814
116	0x3d6af6f4	0.05736442
117	0xbe82c9cf	-0.25544593
118	0xbe156284	-0.14588362
119	0xbe1f7111	-0.15570475
120	0x3db73d1f	0.08947205
121	0xbe3fea2a	-0.1874167
122	0xbdcc5e06	-0.09978871
123	0x3d7ad49c	0.061237916
124	0xbd99b83e	-0.075058445
125	0xbc9ace63	-0.018897241
126	0x3de146d3	0.10999837
127	0xbcd58715	-0.026065389
128	0x3df0d296	0.11758916
129	0xbc9bc8e7	-0.019016696
130	0x3de0a967	0.10969811
131	0xbd511cce	-0.05105286
132	0x3d106487	0.03525212
133	0xbdc2c780	-0.09510708
134	0xbe1aab41	-0.1510439
135	0x3dc255e0	0.094890356
136	0x3d4876f5	0.04894157
137	0x3d8b837f	0.0681219
138	0xbd1621a4	-0.036653176
139	0xbcd2c161	-0.025726976
140	0x3c86e745	0.0164677
141	0x3d459000	0.048233032
142	0xbac8c823	-0.0015318434
143	0xbbf75531	-0.0075479974
144	0xbc6e3d1d	-0.014540938
145	0x3ced1a80	0.0289433
146	0xbdb87712	-0.09007086
147	0x3d3497eb	0.044090193
148	0xbda4d93b	-0.08049246
149	0x3c05f7ee	0.008176787
150	0x3c9e5ee6	0.01933236
151	0xbe519705	-0.20467766
152	0x3d54d318	0.051959127
153	0x3d45c2de	0.048281543
154	0xbdb61787	-0.08891206
155	0xbdf9bfa4	-0.12194756
156	0xbb93abb7	-0.004506554
157	0x3e6d3a40	0.23166752
158	0xbd941dbf	-0.07232236
159	0xbda483d8	-0.0803296
160	0xbdce88a8	-0.10084659
161	0xbd9db2ed	-0.07700143
162	0xbc070b1a	-0.008242393
163	0xbe10d851	-0.14145018
164	0x3d930e84	0.07180503
165	0xbd32bd0e	-0.043637328
166	0x3cbb0fc1	0.02283466
167	0x3d04d7f5	0.032432515
168	0x3da8a2b1	0.08234156
169	0xbd0881f9	-0.033327077
170	0xbd110a40	-0.035410166
171	0xbd3d8736	-0.046271525
172	0x3c24f2fb	0.010067697
173	0xbe3854ea	-0.18001142
174	0xbd52eccf	-0.05149537
175	0x3de19f12	0.110166684
176	0x3d947e67	0.07250672
177	0xbd9ec1b0	-0.07751787
178	0x3cf822d6	0.030290049
179	0x3dd22972	0.10261811
180	0x3c9b38f1	0.01894805
181	0xbd6eb7bb	-0.058280688
182	0xbd9ef60d	-0.07761774
183	0x3d8938cf	0.067002885
184	0xbd4c1992	-0.049829073
185	0xbdc6a0ba	-0.09698625
186	0x3c2b4278	0.010452859
187	0xbd2351b5	-0.039872844
188	0xbdd3949d	-0.1033108
189	0xbe144a59	-0.14481486
190	0xbc87ea62	-0.016591255
191	0xbdfaf579	-0.122538514
192	0x3ce1beb0	0.027556747
193	0x3d83defa	0.06439014
194	0xbdc0d676	-0.09415905
195	0x3d91d9a7	0.07121592
196	0xbd9b6e4f	-0.07589399
197	0xbc5f46bc	-0.013627704
198	0xbd5369b2	-0.05161447
199	0xbd8e60a1	-0.06952024
200	0xbb559d1b	-0.0032594863
201	0x3cd638a7	0.02615006
202	0xbd403d91	-0.046933714
203	0xbd8fce51	-0.070217736
204	0x3bbbe148	0.0057336427
205	0x3c09301f	0.008373289
206	0x3e27eb97	0.16398464
207	0x3d91d52f	0.0712074
208	0x3e02114d	0.12701912
209	0x3d84bbff	0.0648117
210	0x3df1bf12	0.11804022
211	0xbd30fa20	-0.043207288
212	0xbdad228b	-0.08453854
213	0x3db4721b	0.088108264
214	0x3dfe0ab6	0.12404387
215	0x3ed71946	0.4201147
216	0xbdaf9ade	-0.085744604
217	0xbcbe4c2f	-0.023229687
218	0xbdca5640	-0.09879732
219	0x3e06aec4	0.13152605
220	0xbe0c8996	-0.1372436
221	0xbdd81358	-0.105505645
222	0x3e5efdc0	0.21776485
223	0x3ddc9d20	0.10772157
224	0x3e9e2f36	0.30895394
225	0xbd719082	-0.058975704
226	0x3e5d0dfe	0.21587369
227	0x3dfbc02e	0.12292515
228	0xbdbd64e7	-0.09247761
229	0xbcc79b8a	-0.024366159
230	0xbdd26786	-0.10273652
231	0x3e08df7a	0.133665
232	0xbc42ac86	-0.011881953
233	0xbdfa093e	-0.12208794
234	0xbd6b1e5f	-0.05740201
235	0x3d975d9d	0.07390902
236	0x3d5d6ce5	0.054058928
237	0x3ef1e46c	0.47244585
238	0x3c7e4731	0.015519903
239	0x3d52727a	0.051378705
240	0xbe0768e5	-0.13223608
241	0xbc0818cc	-0.008306693
242	0x3c925a54	0.017865337
243	0x3e0d7775	0.138151
244	0x3ded1614	0.11576477
245	0x3d456d21	0.048199777
246	0x3daf9d59	0.085749336
247	0x3d0538ca	0.03252486
248	0x3deb7f51	0.11498893
249	0x3ddf95fd	0.1091728
250	0xbd9f356c	-0.07773861
251	0x3dfc2232	0.1231121
252	0x3e5ba447	0.21449386
253	0xbe162b80	-0.14665031
254	0xbc31fab0	-0.010862991
255	0x3cc3c018	0.023895308

lstm.weight_ih_l1 f4 [256, 64]
0	0xbe3bfc10	-0.18357873
1	0xbdbbbf95	-0.09167401
2	0xbddf0d69	-0.1089123
3	0x3d620378	0.05517909
4	0x3e0a6c27	0.1351782
5	0xbe1b5f2e	-0.15173027
6	0x3e6f811b	0.23389094
7	0xbd354629	-0.044256363
8	0xbe098d7a	-0.13432875
9	0xbd8ae6b0	-0.067822814
10	0xbdea377f	-0.11436366
11	0x3dfaf2e7	0.12253361
12	0x3dee666b	0.116406284
13	0xbc1fd8da	-0.009756291
14	0x3a9b9025	0.001186852
15	0x3ddc75a6	0.10764627
16	0x3db0cbfc	0.08632657
17	0xbe20b032	-0.15692213
18	0xbdffe1f1	-0.12494267
19	0x3e468447	0.19386397
20	0x3e18327b	0.14863007
21	0x3d26c876	0.04071852
22	0x3e21b31a	0.15790978
23	0x3de5299a	0.111895755
24	0xbe520d83	-0.20512967
25	0xbe4881d8	-0.19580781
26	0xbe324890	-0.17410493
27	0x3c8404ea	0.016115624
28	0xbe687c03	-0.22703557
29	0xbdb93955	-0.09044138
30	0x3d2118f4	0.039330438
31	0x3de355b0	0.11100328
32	0x3e0bdab3	0.13657646
33	0xbe52794e	-0.20554087
34	0xbcf724d4	-0.030168928
35	0x3e06f82d	0.13180609
36	0x3ce156ca	0.027507205
37	0xbde4b330	-0.1116699
38	0x3e5ae211	0.213753
39	0xbe74d97d	-0.2391109
40	0x3d4a1dff	0.049345013
41	0x3e3d0926	0.18460521
42	0x3d7e4ef3	0.06208701
43	0xbd91d1ae	-0.07120071
44	0x3e056263	0.13025813
45	0x3d4d39d1	0.050103966
46	0x3dd88647	0.10572486
47	0xbe5c1ced	-0.2149541
48	0x3d43e4f1	0.047825757
49	0x3dbb3010	0.091400266
50	0xbd389198	-0.045060724
51	0xbe3e2e54	-0.1857236
52	0x3d9dfb6e	0.07713972
53	0x3a951672	0.0011374487
54	0x3e81509f	0.25256822
55	0xbe0835f6	-0.13301834
56	0xbda45af7	-0.08025163
57	0x3e2a5301	0.16633226
58	0x3e0cd2fd	0.1375236
59	0xbd353ea6	-0.0442492
60	0x3d958863	0.07301404
61	0x3dce598b	0.10075673
62	0xbd33cbd7	-0.04389557
63	0xbcad1315	-0.021127263
64	0xbe02e893	-0.12784033
65	0x3e2f7ee9	0.17138256
66	0x3daf7f4d	0.085692026
67	0xbdabba09	-0.08385093
68	0xbcf4b631	-0.029872032
69	0x3d9577a3	0.072982095
70	0xbdd8e9d3	-0.105914734
71	0xbd1f0e55	-0.038832027
72	0xbe1becba	-0.15227023
73	0xbdc29026	-0.095001504
74	0xbdac6395	-0.08417431
75	0x3a777ac5	0.00094405963
76	0xbcf2ca89	-0.029637592
77	0xbd0b496f	-0.03400558
78	0xbce8a183	-0.028397327
79	0xbd8d273d	-0.0689225
80	0xbe42f5a7	-0.19039021
81	0x3da91328	0.08255607
82	0x3dc94069	0.098267384
83	0xbd3fb606	-0.04680445
84	0x3d067088	0.032822162
85	0x3d970865	0.07374648
86	0x3b8c401b	0.004280103
87	0xbd84ed5b	-0.064905845
88	0xbda2d7b4	-0.07951298
89	0xbcc7aa66	-0.024373244
90	0x3be3b313	0.0069488375
91	0x3d348f02	0.044081695
92	0xbd6a0303	-0.05713178
93	0xbd876087	-0.06610208
94	0xbdd010db	-0.10159465
95	0x3c3ce536	0.0115292575
96	0x3d9e62b1	0.07733668
97	0x3d65e7fd	0.056129444
98	0x3e087ed3	0.1332963
99	0x3e23e849	0.16006579
100	0xbdc6717d	-0.09689615
101	0xbcaec08e	-0.021332052
102	0x3e1bb71b	0.15206568
103	0x3e060ef5	0.13091643
104	0x3d07775d	0.033072818
105	0x3de96f39	0.11398167
106	0x3c0d9d7d	0.008643505
107	0x3d7b554b	0.06136064
108	0x3d9452bd	0.072423436
109	0xbd73c4e4	-0.05951394
110	0xbd689ec3	-0.056792032
111	0x3d2422b7	0.04007217
112	0x3e194cd9	0.14970721
113	0x3d612294	0.054964617
114	0xbcd245b6	-0.025668006
115	0x3d8017cf	0.06254541
116	0x3da8ca5c	0.08241722
117	0x3d5f1afc	0.054469094
118	0x3c9d9f87	0.019241108
119	0x3c885b3c	0.016645066
120	0xbd1f895b	-0.03894935
121	0x3d386053	0.045013737
122	0xbdd5fa98	-0.104481876
123	0x3d2bd19f	0.041947957
124	0x3d280c9d	0.041027654
125	0xbd579efc	-0.052641854
126	0x3cdff931	0.027340503
127	0x3b6e7432	0.0036385176
128	0xbd37a48f	-0.04483467
129	0x3d20ed4f	0.039288815
130	0x3df2b09e	0.11850093
131	0xbe13db4e	-0.14439127
132	0x3d83c958	0.06434888
133	0x3d7a9e0e	0.06118589
134	0xbe51f028	-0.20501769
135	0x3d8e4882	0.069474235
136	0x3d29979e	0.04140436
137	0xbd07c8a7	-0.03315034
138	0x3ed1d75c	0.4098462
139	0xbdd96719	-0.106153674
140	0xbe394dcd	-0.18096085
141	0xbc13d1b3	-0.009022164
142	0xbde3a41e	-0.11115287
143	0xbe8c44ae	-0.27396148
144	0x3e570a53	0.21000032
145	0xbe919d4d	-0.28440323
146	0x3d7796d3	0.06044657
147	0x3d1f6e72	0.03892369
148	0xbe209dcd	-0.15685196
149	0xbe5c3756	-0.21505484
150	0xbe216ad0	-0.15763402
151	0xbc71d07b	-0.014759178
152	0x3e795aec	0.2435109
153	0x3e6de054	0.23230106
154	0x3c9f44f2	0.019442055
155	0x3e786aef	0.24259542
156	0x3c200f6d	0.009769303
157	0x3ec59b3e	0.38595003
158	0xbe65b0dd	-0.22430749
159	0xbde3a010	-0.11114514
160	0xbe6c55bc	-0.2307958
161	0x3e18156f	0.14851926
162	0x3e8902a7	0.26759836
163	0x3d89f165	0.067354955
164	0xbdbc7728	-0.09202415
165	0x3cf5266d	0.02992555
166	0x3dbc8955	0.092058815
167	0x3e0ba30b	0.13636415
168	0xbcae1964	-0.021252342
169	0xbceb143a	-0.028696168
170	0xbdc0fdcc	-0.09423408
171	0xbda663cc	-0.081245035
172	0xbe0fdf12	-0.14049938
173	0xbdfcdef4	-0.123472124
174	0xbd41f687	-0.047354247
175	0x3e3de2d1	0.18543555
176	0xbc8242b3	-0.015900945
177	0x3dfc7e3f	0.12328767
178	0x3e82c463	0.25540456
179	0x3b393e19	0.0028265773
180	0xbe318b32	-0.17338255
181	0xbd4631a3	-0.04838718
182	0xbe1a06cf	-0.1504166
183	0xbbf15b2f	-0.0073656063
184	0x3e18a0eb	0.14905135
185	0xbd8d58f9	-0.06901736
186	0xbe380ff3	-0.17974834
187	0x3d52cc33	0.05146427
188	0xbe9fbb53	-0.31197605
189	0xbbd7efb1	-0.0065898527
190	0x3d9a178c	0.075240225
191	0xbe805a7a	-0.25069028
192	0x3d3c8111	0.046021525
193	0x3cf716e2	0.030162279
194	0xbdf364a2	-0.118844286
195	0xbdaf69fe	-0.08565138
196	0xbe1937b8	-0.14962661
197	0xb9f920e2	-0.0004751748
198	0xbdf4bd80	-0.11950207
199	0x3df5bf85	0.1199942
200	0xbbac5ca2	-0.005260066
201	0xbd9f20fd	-0.07769964
202	0x3db98db3	0.0906023
203	0xbdcb5182	-0.09927656
204	0xbe2df22a	-0.1698691
205	0xbdc75537	-0.0973305
206	0xbcac55e9	-0.021037059
207	0xbe6439dc	-0.22287697
208	0xbe3052a8	-0.17219031
209	0xbdfaf535	-0.12253801
210	0xbea8db60	-0.3297987
211	0xbde3e8b1	-0.11128367
212	0x3d8661bb	0.06561609
213	0x3d8faa29	0.07014877
214	0xbe12a4f3	-0.14320736
215	0x3e077fe3	0.13232379
216	0x3dd869a6	0.10567026
217	0x3d0e67ce	0.034766965
218	0x3d00f14e	0.031480126
219	0xbc4ba7b7	-0.012430123
220	0x3d5fd988	0.054650813
221	0x3d4fcd11	0.050732676
222	0xbe2d63fa	-0.1693267
223	0x3e0ba172	0.13635805
224	0xbe3d8532	-0.18507841
225	0xbd4e5022	-0.05036939
226	0x3d1149f8	0.035470933
227	0xbf0369f1	-0.5133353
228	0xbe1bcfd1	-0.15215994
229	0x3e0ca1e2	0.13733628
230	0x3d17e5e8	0.03708449
231	0x3e07e424	0.13270622
232	0xbe2d2233	-0.16907577
233	0xbdf23dee	-0.118282184
234	0xbd9b0e85	-0.07571129
235	0xbd1e07da	-0.038581707
236	0x3b336f20	0.0027379468
237	0xbd17321a	-0.036913015
238	0x3d54d979	0.05196521
239	0xbd0844a2	-0.03326858
240	0xbd0635a1	-0.03276599
241	0x3c5c9737	0.013463787
242	0xbdbae5a3	-0.09125831
243	0x3d80325d	0.06259606
244	0xbd29e8bf	-0.04148173
245	0xbe369f57	-0.17834221
246	0x3d06df0e	0.032927565
247	0x3ccbea06	0.024891865
248	0x3d46f335	0.048571784
249	0xbd4d139a	-0.05006752
250	0x3cc50f41	0.024055125
251	0x3d735ed4	0.059416607
252	0x3c3d5a8b	0.011557232
253	0xbde2586f	-0.110520236
254	0x3cab82f8	0.020936474
255	0xbcb142f7	-0.021638377

lstm.weight_hh_l1 f4 [256, 64]
0	0x3d0cfbb2	0.034419723
1	0xbe171373	-0.14753513
2	0xbe73ae7d	-0.23797031
3	0x3d5c0db7	0.053724017
4	0xbc4f6b31	-0.012659834
5	0xbd756bf7	-0.059917416
6	0x3d8c63e8	0.06854993
7	0x3cc38368	0.02386637
8	0x3d01838f	0.031619605
9	0xbbbd00db	-0.0057679242
10	0xbda32116	-0.07965295
11	0x3da4b9a3	0.0804322
12	0x3d6a8933	0.05725975
13	0xbd51070d	-0.051032115
14	0xbd5a198c	-0.05324702
15	0xbd7bea50	-0.061502755
16	0xbd89d61e	-0.06730293
17	0x3d993ef3	0.0748271
18	0x3ac9c678	0.0015394231
19	0x3c302de3	0.010753128
20	0x3ddbd599	0.107341
21	0x3d1ca1f9	0.038240407
22	0x3d0a0ce5	0.033703703
23	0x3da61454	0.08109346
24	0xbec476ed	-0.38371983
25	0xbc9983ca	-0.0187396
26	0xbd6ef15f	-0.05833566
27	0x3da5c237	0.08093684
28	0x3b3bbfe2	0.0028648307
29	0xbd965eab	-0.07342275
30	0xbda71e06	-0.081600234
31	0xbd987319	-0.07443828
32	0xbdc027a9	-0.093825646
33	0x3e3ab4bb	0.18233006
34	0xbe1565ba	-0.14589587
35	0xbe18ca3b	-0.14920895
36	0xbe270ce2	-0.16313508
37	0x3a6c2b39	0.0009009126
38	0x3d3039ba	0.043023802
39	0x3db376f1	0.08762921
40	0x3d13451a	0.035954572
41	0x3e0999e9	0.13437618
42	0x3e58422f	0.21118997
43	0x3e35c3d8	0.1775049
44	0x3dd93dc5	0.10607485
45	0x3dc766b4	0.09736386
46	0xbcfc0609	-0.030764597
47	0xbe937470	-0.28799772
48	0x3e648509	0.22316374
49	0xbe2cbe3e	-0.16869447
50	0xbdb93ba6	-0.0904458
51	0xbddfea91	-0.10933412
52	0xbdf8ada5	-0.12142495
53	0xbcd72573	-0.026262974
54	0x3dbd947c	0.09256837
55	0xbe7526fe	-0.23940656
56	0x3d71b2df	0.059008475
57	0x3e60a8ee	0.21939442
58	0x3e2a32f3	0.16620998
59	0x3d94e796	0.07270734
60	0xbdb9086e	-0.09034811
61	0xbdeb3412	-0.11484541
62	0xbda4b2f1	-0.08041943
63	0x3c241e76	0.010017028
64	0xbdda837b	-0.10669609
65	0xbc549e15	-0.012977143
66	0xbe0ffa5e	-0.14060351
67	0x3e2b7260	0.1674285
68	0x3ba2f7ae	0.0049733734
69	0xbdaaf463	-0.08347394
70	0x3dc7f640	0.09763765
71	0x3d702393	0.058627676
72	0xbda5065e	-0.08057855
73	0x3cef63a3	0.029222315
74	0xbdf8d9ef	-0.121509425
75	0xbe0d0d11	-0.13774516
76	0xbaf371a6	-0.0018573299
77	0xbac93ff1	-0.0015354139
78	0xbd6ef088	-0.058334857
79	0xbcfd32d7	-0.030908031
80	0xbab2bb7d	-0.0013636198
81	0x3df0cc91	0.11757768
82	0x3df788e7	0.12086659
83	0x3e18376e	0.14864895
84	0x3d9c964c	0.07645854
85	0xbde3cf48	-0.1112352
86	0xbdcb94a3	-0.099404596
87	0x3bab36bb	0.0052250302
88	0xbeaf5e7a	-0.34251767
89	0xbdf94b39	-0.12172551
90	0xbd530920	-0.051522374
91	0x3d61a88b	0.055092376
92	0x3d8cc445	0.06873373
93	0xbd9e93fe	-0.07743071
94	0xbda4a11f	-0.08038544
95	0x3d809ba1	0.06279684
96	0xbc9e781c	-0.019344382
97	0x3e103d69	0.14085926
98	0x3dfe6eda	0.12423487
99	0xbd61eb28	-0.055155903
100	0x3d78c145	0.06073119
101	0xbd0531f5	-0.032518346
102	0xbcabf51f	-0.020990906
103	0xbdf0c498	-0.11756247
104	0x3d83a55a	0.06428023
105	0x3c1cd26a	0.009571651
106	0x3dd60d23	0.104517244
107	0x3d1730cb	0.036911767
108	0xbc535b35	-0.012900163
109	0xbd7f702c	-0.062362835
110	0x3db1a786	0.08674531
111	0xbdbab8b1	-0.09117258
112	0x3c87d764	0.016582198
113	0xbe2511fc	-0.16120142
114	0x3bcbde6b	0.0062215826
115	0xbd125344	-0.03572394
116	0xbd90d4b9	-0.070718236
117	0x3d04e6c6	0.032446645
118	0xbd9401f0	-0.07226932
119	0xbddc0832	-0.10743751
120	0x3dd56e91	0.104214795
121	0x3d29540c	0.04133992
122	0x3df4fbe5	0.119621076
123	0x3d2352ee	0.03987401
124	0xbcbef30e	-0.023309257
125	0x3d8caf2d	0.0686935
126	0x3cdd72e7	0.027032329
127	0x3dae6758	0.08515805
128	0x3e0f0fe4	0.13970906
129	0x3e7af874	0.2450884
130	0xbd5e0eae	-0.05421322
131	0x3c8fe6e5	0.017566154
132	0xbd295789	-0.041343246
133	0xbd2f1446	-0.042743944
134	0xbe4554db	-0.19270651
135	0xbce1361d	-0.027491624
136	0x3d40c109	0.047059093
137	0x3e65b4f2	0.22432306
138	0x3e8afcd2	0.27146012
139	0x3da8e68e	0.082471
140	0x3e581b77	0.21104227
141	0x3e28a6d8	0.16469896
142	0xbdea26bb	-0.114331685
143	0xbee50b18	-0.44735026
144	0x3df773a7	0.12082606
145	0xbe2f4b76	-0.1711863
146	0xbe2e8a6e	-0.17044994
147	0xbe81f254	-0.25380194
148	0xbe53039d	-0.20606847
149	0xbe924bca	-0.28573447
150	0xbb4e0d93	-0.0031441196
151	0x3dc04235	0.09387628
152	0xbdc35c8e	-0.09539138
153	0x3e5e7add	0.21726556
154	0x3ce70e40	0.028205037
155	0xbd194a22	-0.037424214
156	0xbbbe6c71	-0.005811267
157	0x3c0c2643	0.008554044
158	0x3e16babb	0.1471967
159	0x3e02b727	0.1276518
160	0xbd55d469	-0.052204523
161	0xbe011c9c	-0.1260857
162	0x3e2c470b	0.16823976
163	0x3be9e2c5	0.0071376287
164	0x3e77dcda	0.24205342
165	0x3c1f3da1	0.009719283
166	0xbdd1c1ff	-0.1024208
167	0xbd450f30	-0.048110187
168	0x3ded4712	0.11585821
169	0x3c8d0f7b	0.017219296
170	0xbecd1a9c	-0.40059364
171	0xbe3486ab	-0.17629497
172	0xbc5b0d93	-0.013369936
173	0xbe372fe7	-0.17889367
174	0xbe5eec45	-0.21769817
175	0xbcf0a279	-0.029374348
176	0xbe04a36a	-0.12952963
177	0x3e9d91e4	0.30775368
178	0x3db1e57f	0.08686351
179	0xbdb21251	-0.086949
180	0x3e12d9d1	0.14340903
181	0xbd24a188	-0.04019311
182	0xbd513777	-0.051078286
183	0x3d2d6eb5	0.042341907
184	0xbdb82fd8	-0.089935005
185	0xbe0ffabd	-0.14060493
186	0xbdb1582b	-0.08659395
187	0xbd102dc3	-0.03519989
188	0xbe8354ad	-0.2565054
189	0x3e502a4f	0.2032864
190	0xbe989f5a	-0.29809076
191	0xbdaa1825	-0.083053865
192	0xbdbd2595	-0.09235684
193	0xbe3298a5	-0.17441042
194	0xbe12fb1b	-0.14353602
195	0x3dfec2fe	0.124395356
196	0xbab20739	-0.0013582475
197	0xbd0f1975	-0.034936387
198	0x3ca98106	0.020691406
199	0xbdc3fe23	-0.09569957
200	0x3c5be065	0.013420199
201	0xbd5488cc	-0.051888272
202	0xbe06225f	-0.13099049
203	0xbd42547b	-0.047443848
204	0xbe366131	-0.17810513
205	0xbcc5aa8e	-0.024129178
206	0x3d89b311	0.06723607
207	0xbd23f296	-0.04002627
208	0x3c88ec42	0.016714219
209	0x3c9f2afe	0.01942968
210	0x3bbef3b1	0.00582739
211	0xbd2bcd14	-0.041943625
212	0x3df5372a	0.11973412
213	0x3e0fef6c	0.14056176
214	0xbe37207b	-0.17883484
215	0x3d006dcf	0.03135472
216	0xbdd93891	-0.10606492
217	0x3d8a04a5	0.06739167
218	0x3ce29c22	0.02766234
219	0xbd329169	-0.043595705
220	0x3e20a008	0.15686047
221	0xbd03333e	-0.03203129
222	0xbdd56c9d	-0.10421107
223	0x3d8b1a0a	0.06792076
224	0x3e313b45	0.17307766
225	0x3bad963b	0.00529745
226	0x3d102eb0	0.035200775
227	0xbdbba3cb	-0.091621004
228	0xbdc2ef43	-0.09518292
229	0xbd5d7163	-0.054063212
230	0x3dd3f720	0.1034987
231	0xbcd2bc11	-0.025724443
232	0xbdf8ce24	-0.12148693
233	0xbc724d31	-0.014788912
234	0x3da18a57	0.07887714
235	0x3dc26ba6	0.094931886
236	0x3e06b985	0.13156708
237	0xbe53b72e	-0.20675346
238	0xbc9b04d9	-0.01892321
239	0xbbc55046	-0.006021532
240	0x3e06273f	0.13100909
241	0x3d18aa28	0.03727165
242	0xbcef20e5	-0.02919049
243	0xbc317567	-0.010831214
244	0xbcdb9073	-0.026802277
245	0x3d6fffb8	0.05859348
246	0xbd54e140	-0.051972628
247	0xbd156990	-0.036477625
248	0x3da1bb66	0.078970715
249	0x3d92c91c	0.07167265
250	0x3db1a752	0.08674492
251	0x3db8e983	0.09028914
252	0x3e1fef9c	0.15618747
253	0xbc80b02a	-0.015709002
254	0x3c637e8f	0.013885154
255	0x3dfaa006	0.12237553
