output/tuning_results/STGCN_run_1.pth (torch, 345407 bytes, 25 tensors)

adj f4 [207, 207]
0.3401912 0.0 0.0 0.0 0.0 0.0 0.0 0.0
0.0 0.0 0.0 0.0 0.0 0.03992072 0.0 0.0
0.0 0.0 0.0 0.0 0.0 0.0 0.0 0.0
0.0 0.0 0.0 0.0 0.0 0.0 0.0 0.0
0.0 0.0 0.0 0.0 0.0 0.08348498 0.0 0.0
0.0 0.0 0.024108283 0.0 0.0 0.0 0.0 0.0
0.0 0.0 0.0 0.0 0.0 0.0 0.070150584 0.0
0.0 0.0 0.0 0.0 0.0 0.0 0.0 0.0
0.0 0.0 0.0 0.0 0.0 0.0 0.0 0.0
0.0 0.0 0.0 0.0 0.0 0.0 0.0 0.0
0.0 0.0 0.0 0.0 0.0 0.0 0.0 0.0
0.0 0.0 0.0 0.0 0.0 0.0 0.0 0.0
0.0 0.0 0.0 0.0 0.0 0.0 0.0 0.0
0.0 0.0 0.0 0.0 0.0 0.0 0.0 0.039144676
0.0 0.0 0.0 0.0 0.08377481 0.0 0.0 0.0
0.0 0.0 0.0 0.0 0.0 0.022322837 0.0 0.0
0.0 0.0 0.0 0.0 0.0 0.0 0.0 0.0
0.0 0.0 0.0 0.0 0.021134937 0.0 0.11256503 0.0
0.0 0.14148068 0.0 0.0 0.0 0.0 0.0 0.0
0.0 0.0 0.0 0.0 0.0 0.0 0.0 0.0
0.0 0.0 0.0 0.0 0.0 0.0 0.0 0.0
0.0 0.0 0.0 0.0 0.0 0.0 0.0 0.0
0.0 0.0 0.0 0.0 0.0 0.0 0.0 0.0
0.0 0.0 0.0 0.0 0.0 0.0 0.0 0.0
0.0 0.0 0.0 0.0 0.0 0.0 0.0 0.022688141
0.0 0.0 0.0 0.0 0.0 0.0 0.0 0.0
0.41601694 0.07421152 0.0 0.0 0.0 0.0 0.06787658 0.0
0.0 0.0 0.0 0.0 0.0 0.0 0.0 0.0
0.0 0.0 0.0 0.0 0.0 0.0 0.0 0.0
0.0 0.0 0.0 0.10792209 0.0 0.0 0.0 0.0
0.0 0.0 0.0 0.0 0.0 0.0 0.0 0.0
0.0 0.0 0.0 0.0 0.0 0.0 0.0 0.0
00000000: 8a2d ae3e 0000 0000 0000 0000 0000 0000
00000010: 0000 0000 0000 0000 0000 0000 0000 0000
00000020: 0000 0000 0000 0000 0000 0000 0000 0000
00000030: 0000 0000 e983 233d 0000 0000 0000 0000
00000040: 0000 0000 0000 0000 0000 0000 0000 0000
00000050: 0000 0000 0000 0000 0000 0000 0000 0000
00000060: 0000 0000 0000 0000 0000 0000 0000 0000
00000070: 0000 0000 0000 0000 0000 0000 0000 0000
00000080: 0000 0000 0000 0000 0000 0000 0000 0000
00000090: 0000 0000 2cfa aa3d 0000 0000 0000 0000
000000a0: 0000 0000 0000 0000 bc7e c53c 0000 0000
000000b0: 0000 0000 0000 0000 0000 0000 0000 0000
000000c0: 0000 0000 0000 0000 0000 0000 0000 0000
000000d0: 0000 0000 0000 0000 1cab 8f3d 0000 0000
000000e0: 0000 0000 0000 0000 0000 0000 0000 0000
000000f0: 0000 0000 0000 0000 0000 0000 0000 0000
00000100: 0000 0000 0000 0000 0000 0000 0000 0000
00000110: 0000 0000 0000 0000 0000 0000 0000 0000
00000120: 0000 0000 0000 0000 0000 0000 0000 0000
00000130: 0000 0000 0000 0000 0000 0000 0000 0000
00000140: 0000 0000 0000 0000 0000 0000 0000 0000
00000150: 0000 0000 0000 0000 0000 0000 0000 0000
00000160: 0000 0000 0000 0000 0000 0000 0000 0000
00000170: 0000 0000 0000 0000 0000 0000 0000 0000
00000180: 0000 0000 0000 0000 0000 0000 0000 0000
00000190: 0000 0000 0000 0000 0000 0000 0000 0000
000001a0: 0000 0000 0000 0000 0000 0000 0000 0000
000001b0: 0000 0000 0000 0000 0000 0000 2b56 203d
000001c0: 0000 0000 0000 0000 0000 0000 0000 0000
000001d0: 2192 ab3d 0000 0000 0000 0000 0000 0000
000001e0: 0000 0000 0000 0000 0000 0000 0000 0000
000001f0: 0000 0000 62de b63c 0000 0000 0000 0000
00000200: 0000 0000 0000 0000 0000 0000 0000 0000
00000210: 0000 0000 0000 0000 0000 0000 0000 0000
00000220: 0000 0000 0000 0000 0000 0000 0000 0000
00000230: 2d23 ad3c 0000 0000 7f88 e63d 0000 0000
00000240: 0000 0000 50e0 103e 0000 0000 0000 0000
00000250: 0000 0000 0000 0000 0000 0000 0000 0000
00000260: 0000 0000 0000 0000 0000 0000 0000 0000
00000270: 0000 0000 0000 0000 0000 0000 0000 0000
00000280: 0000 0000 0000 0000 0000 0000 0000 0000
00000290: 0000 0000 0000 0000 0000 0000 0000 0000
000002a0: 0000 0000 0000 0000 0000 0000 0000 0000
000002b0: 0000 0000 0000 0000 0000 0000 0000 0000
000002c0: 0000 0000 0000 0000 0000 0000 0000 0000
000002d0: 0000 0000 0000 0000 0000 0000 0000 0000
000002e0: 0000 0000 0000 0000 0000 0000 0000 0000
000002f0: 0000 0000 0000 0000 0000 0000 0000 0000
00000300: 0000 0000 0000 0000 0000 0000 0000 0000
00000310: 0000 0000 0000 0000 0000 0000 7bdc b93c
00000320: 0000 0000 0000 0000 0000 0000 0000 0000
00000330: 0000 0000 0000 0000 0000 0000 0000 0000
00000340: 2c00 d53e 36fc 973d 0000 0000 0000 0000
00000350: 0000 0000 0000 0000 e002 8b3d 0000 0000
00000360: 0000 0000 0000 0000 0000 0000 0000 0000
00000370: 0000 0000 0000 0000 0000 0000 0000 0000
00000380: 0000 0000 0000 0000 0000 0000 0000 0000
00000390: 0000 0000 0000 0000 0000 0000 0000 0000
000003a0: 0000 0000 0000 0000 0000 0000 4206 dd3d
000003b0: 0000 0000 0000 0000 0000 0000 0000 0000
000003c0: 0000 0000 0000 0000 0000 0000 0000 0000
000003d0: 0000 0000 0000 0000 0000 0000 0000 0000
000003e0: 0000 0000 0000 0000 0000 0000 0000 0000
000003f0: 0000 0000 0000 0000 0000 0000 0000 0000

block1.tcn1.conv_a.weight f4 [32, 1, 3, 1]
-0.112831414 -0.11313198 0.38036418 0.06074346 0.03382512 0.15051325 0.54882157 -0.34014335
0.50651 -0.057708513 0.52143073 0.12500788 -0.34078532 0.63994205 0.20270617 -0.5726173
0.40471634 0.30003107 0.6080823 0.3225636 0.33106178 -0.18901916 0.5185567 -0.40544388
0.11669477 0.47001514 -0.15509327 0.3206325 0.25785407 0.2050897 0.16992065 -0.3623945
-0.07453967 -0.6356592 0.2754492 0.37613013 0.17515108 -0.3229095 -0.5537954 -0.24415478
0.10810108 -0.5282048 0.290818 0.6934798 0.39174375 -0.09633154 -0.14215316 -0.27756742
-0.059208624 0.22730985 0.52019894 0.37724453 0.5396915 0.37741506 0.43589932 0.3808228
0.6016867 0.35150358 -0.153993 0.79774207 0.091358006 -0.4087352 0.041455705 0.26661083
-0.4302559 -0.4752997 -0.30186182 0.43191266 0.33501297 0.26458958 0.29418373 0.5923083
0.64389706 0.50546306 0.30454433 0.16558793 0.20693564 0.31585354 -0.58023626 0.3272952
0.6436078 0.2188979 0.047183275 -0.18547812 0.13311839 -0.22216555 0.3058298 -0.092770815
0.23093943 -0.44688427 -0.2891147 -0.62425137 0.13240361 0.5063624 0.49818596 -0.43184593
00000000: 2814 e7bd bdb1 e7bd 18bf c23e 22ce 783d
00000010: 368c 0a3d 2520 1a3e 927f 0c3f 4527 aebe
00000020: a4aa 013f c35f 6cbd 7c7c 053f 1102 003e
00000030: 6a7b aebe 3ed3 233f 3592 4f3e 0c97 12bf
00000040: fb36 cf3e ac9d 993e 48ab 1b3f 0e27 a53e
00000050: ee80 a93e 3d8e 41be 22c0 043f 5796 cfbe
00000060: abfd ee3d d3a5 f03e c5d0 1ebe f129 a43e
00000070: 7305 843e 0903 523e aeff 2d3e c68b b9be
00000080: 41a8 98bd 90ba 22bf ad07 8d3e 2194 c03e
00000090: ce5a 333e 6554 a5be 89c5 0dbf b603 7abe
000000a0: 1964 dd3d 6e38 07bf 19e6 943e e487 313f
000000b0: a392 c83e 7849 c5bd 9990 11be 511d 8ebe
000000c0: be84 72bd eac3 683e c22b 053f 3226 c13e
000000d0: 3929 0a3f 8c3c c13e 322e df3e 35fb c23e
000000e0: 2408 1a3f 47f8 b33e 57b0 1dbe d338 4c3f
000000f0: e819 bb3d bd45 d1be 75cd 293d 3781 883e
00000100: 804a dcbe 7b5a f3be a28d 9abe a823 dd3e
00000110: d286 ab3e 4978 873e 409f 963e 84a1 173f
00000120: 70d6 243f 0766 013f 3ced 9b3e e28f 293e
00000130: f0e6 533e 8eb7 a13e 5d8a 14bf 3d93 a73e
00000140: 7bc3 243f c526 603e 4043 413d faed 3dbe
00000150: 3050 083e 5e7f 63be b995 9c3e a0fe bdbd
00000160: 637b 6c3e 04ce e4be d806 94be f0ce 1fbf
00000170: d094 073e f7a0 013f 3b12 ff3e e91a ddbe

block1.tcn1.conv_a.bias f4 [32]
0.21560216 0.17451221 0.3926916 -0.19533518 -0.095457196 -0.32823136 0.00065504597 -0.43879193
0.5396987 -0.58842057 0.07034901 0.13675486 -0.10064554 -0.2494259 0.30647853 0.4968629
0.10953492 0.46056968 -0.48883477 -0.030211972 -0.21470144 0.47633675 0.11247227 -0.4880818
0.11549471 0.10346857 0.0781075 0.28195074 0.3032118 -0.109900974 0.19247678 -0.03405526
00000000: d0c6 5c3e 54b3 323e e00e c93e f205 48be
00000010: 107f c3bd f10d a8be 64b7 2b3a 56a9 e0be
00000020: b229 0a3f bba2 16bf 2413 903d 7709 0c3e
00000030: 401f cebd 8169 7fbe c1ea 9c3e d064 fe3e
00000040: d853 e03d cacf eb3e 8d48 fabe 197f f7bc
00000050: b2da 5bbe 69e2 f33e dd57 e63d dce5 f9be
00000060: 7e88 ec3d 54e7 d33d d3f6 9f3d d95b 903e
00000070: 943e 9b3e c313 e1bd a218 453e 877d 0bbd

block1.tcn1.conv_b.weight f4 [32, 1, 3, 1]
-0.6025108 0.32778278 0.15155882 0.30942887 -0.45432386 -0.072032295 -0.31456602 -0.049923994
0.51492447 -0.18144278 0.1371086 0.23801757 -0.66139567 0.17876302 -0.49044397 0.6711526
-0.0402505 -0.4423841 -0.015629556 0.6351273 0.33770147 -0.2579519 -0.022283621 0.3101642
-0.66343373 -0.6447265 -0.5752658 0.68016815 -0.20187172 -0.3004077 0.43909192 -0.29866445
0.105265126 0.10392692 0.09832409 0.11282406 -0.51540977 -0.25874963 -0.040684015 0.5940782
0.22428569 0.31573564 -0.0019642888 -0.048954684 0.49735782 0.30404824 0.18463488 0.1655742
0.27887148 0.5478712 -0.06637396 -0.19041005 0.08093608 0.24157414 0.7263825 -0.054197215
0.10402311 0.5987113 0.44515646 0.57590055 0.14962773 -0.4443715 0.20513403 -0.23102686
0.1120533 -0.34971544 -0.17543657 0.09292045 -0.08509337 -0.2512123 0.25830343 -0.43471906
0.34249786 -0.14528826 0.43309802 -0.43948802 0.2512863 0.30700955 0.10670149 -0.7076551
-0.19595203 -0.4388837 -0.43385595 -0.4502076 0.2560909 -0.28834617 -0.28699425 -0.23602453
0.07532496 -0.11810995 -0.36352578 0.24158452 0.35775566 0.18849528 0.048621994 0.3309406
00000000: 263e 1abf 25d3 a73e 3c32 1b3e 766d 9e3e
00000010: 239d e8be ab85 93bd cc0e a1be 1a7d 4cbd
00000020: 17d2 033f 23cc 39be 3266 0c3e e1ba 733e
00000030: 3a51 29bf a70d 373e 791b fbbe a8d0 2b3f
00000040: b5dd 24bd 2b80 e2be 8e09 80bc b497 223f
00000050: 35e7 ac3e 4512 84be 248c b6bc d8cd 9e3e
00000060: cbd6 29bf cc0c 25bf 9f44 13bf 801f 2e3f
00000070: 76b7 4ebe 0acf 99be a8d0 e03e 8cea 98be
00000080: 3e95 d73d a3d7 d43d 245e c93d 4d10 e73d
00000090: e5f1 03bf d57a 84be 48a4 26bd 8215 183f
000000a0: 26ab 653e 1aa8 a13e 4cbb 00bb b584 48bd
000000b0: afa5 fe3e 36ac 9b3e ed10 3d3e 488c 293e
000000c0: 3ec8 8e3e 4941 0c3f 12ef 87bd dafa 42be
000000d0: d1c1 a53d 365f 773e 34f4 393f e6fd 5dbd
000000e0: 110a d53d 2545 193f 8ceb e33e 386e 133f
000000f0: 0338 193e a984 e3be a80e 523e 4e92 6cbe
00000100: 337c e53d e70d b3be a5a5 33be 144d be3d
00000110: 6f45 aebd e69e 80be 5940 843e 7f93 debe
00000120: e15b af3e 72c6 14be 06bf dd3e 9304 e1be
00000130: 99a8 803e 5b30 9d3e 5086 da3d e228 35bf
00000140: a6a7 48be 5db5 e0be 5e22 debe 9c81 e6be
00000150: 591e 833e 1ca2 93be e9f0 92be 6ab0 71be
00000160: f943 9a3d a1e3 f1bd 0d20 babe ef61 773e
00000170: c02b b73e e804 413e db27 473d 0c71 a93e

block1.tcn1.conv_b.bias f4 [32]
0.3809118 0.3869736 0.5787277 -0.4146339 0.47634214 -0.6919435 -0.21767145 0.07338514
0.46396312 -0.30210605 0.4758305 -0.110202864 -0.32706115 0.111538336 0.15393203 -0.034484413
-0.38429853 0.44024563 -0.3172586 0.3935096 0.37521335 -0.09748031 0.022540398 -0.5357927
0.17725608 -0.038243163 0.086812586 -0.5701923 0.33712283 0.22665693 0.4106944 0.13188262
00000000: df06 c33e 6721 c63e 8027 143f e54a d4be
00000010: 1ee3 f33e 3623 31bf 44e5 5ebe f34a 963d
00000020: 938c ed3e a5ad 9abe 0ea0 f33e 0ab2 e1bd
00000030: 8f74 a7be 366e e43d 5ca0 1d3e 873f 0dbd
00000040: c7c2 c4be e067 e13e b86f a2be 177a c93e
00000050: f71b c03e c2a3 c7bd a4a6 b83c b629 09bf
00000060: 9e82 353e dda4 1cbd ccca b13d 1ff8 11bf
00000070: 5d9b ac3e c118 683e 8946 d23e 3d0c 073e

block1.gcn.weight f4 [32, 8]
-0.26796523 -0.5084729 0.05332555 0.54525423 0.022490408 -0.3069078 0.30526882 0.079375185
0.30216604 -0.17740478 0.2812172 -0.15239552 -0.2082636 -0.33456045 -0.08665182 0.026288979
0.3172983 0.22384974 -0.053363174 0.12317129 0.35037342 -0.1487484 -0.15062451 -0.13690804
0.40557566 -0.17190778 -0.042618036 -0.1951012 0.037025113 -0.3025951 -0.20268698 -0.12649971
-0.16547523 -0.004253447 -0.2623751 -0.28223583 0.5434381 -0.37213108 0.5279899 -0.0069518364
-0.19035338 0.28202686 -0.35184118 -0.20161802 -0.249451 0.19063188 -0.46224672 -0.0710224
0.42272466 0.034619145 0.42144388 -0.28239912 0.31470317 0.08356447 -0.54728496 0.30741763
-0.2110722 -0.3567704 0.011615844 -0.53696054 -0.20618072 -0.28873044 0.08316967 0.154923
-0.36098775 -0.36792487 -0.53435284 -0.17091827 -0.24549332 -0.32835922 0.35115865 -0.44656256
0.08387638 -0.27451465 0.058388453 0.3707797 -0.05300284 0.24846841 0.19097628 0.31065008
-0.21700706 0.4074839 0.38283873 -0.2300894 -0.40606564 0.031592946 0.07016308 -0.111755736
0.45970938 -0.06456644 0.392865 0.33120748 0.16285487 -0.2940464 0.4206638 -0.36782825
0.20909105 0.10405347 -0.34733534 0.2486201 -0.18170677 0.3933142 -0.5697953 0.4197874
0.29948232 0.16630049 -0.13712631 -0.123818755 -0.2006289 -0.20577247 0.09386246 0.11387236
0.38344082 -0.34064952 0.086897545 -0.45675042 0.21099623 -0.42773986 -0.15933503 -0.3125751
-0.21481593 0.3729393 -0.15987661 0.21733232 -0.20370547 -0.30319437 -0.17554109 -0.18396105
0.5542246 -0.2380561 0.037793174 -0.068512104 -0.25866914 0.41512161 0.37659964 -0.29124916
0.35644653 -0.12984824 0.08857014 -0.104978584 0.121326365 -0.44035393 -0.20070082 -0.35518277
0.6458357 0.07486524 0.13148205 0.2292097 0.12813233 0.32402724 0.15063569 0.20579699
0.5855534 0.043675564 0.13967828 0.54033613 0.07076424 0.10502076 -0.17636378 0.008162108
-0.3884207 -0.12782173 0.32806313 0.03874099 0.06030675 -0.025964202 -0.30293316 0.22657052
0.28198546 0.06538145 0.014941615 -0.4024216 -0.35254163 -0.23249893 0.08217566 0.22875679
0.42462248 -0.23323804 0.31412405 0.12742706 0.08620187 0.021147074 0.5350441 0.21772385
0.0955341 -0.16393383 0.21981242 0.02700833 0.20555012 0.2200895 0.21638124 -0.18477625
0.45461142 0.3223492 -0.27349767 0.011781498 -0.17537135 -0.036276158 -0.35394484 0.35170072
-0.26092947 -0.010596276 -0.2396682 -0.07788092 -0.2953208 -0.33935526 0.26389554 -0.01248771
0.60236186 -0.4924384 -0.0923839 0.6294645 -0.07898711 -0.27037647 0.52958995 -0.36247703
0.05424524 -0.18446851 0.0072250967 -0.19341649 -0.4487097 0.17821589 -0.30056173 -0.25438258
0.4049046 -0.20711957 0.13073249 0.51582533 -0.31583175 -0.13930425 0.07724438 -0.36240426
0.29392648 -0.016072566 -0.4998755 -0.28699654 -0.22485553 0.27695322 0.21647705 0.11795098
-0.049760036 0.33584338 0.40581864 0.28825748 -0.5361747 -0.08889547 -0.1376842 0.10935818
0.32359347 0.44997668 -0.34131175 -0.3390897 0.35737777 0.24911481 0.17988878 -0.14855641
00000000: bd32 89be 482b 02bf e46b 5a3d c895 0b3f
00000010: ce3d b83c 0523 9dbe 324c 9c3e 758f a23d
00000020: 82b5 9a3e 99a9 35be b3fb 8f3e 920d 1cbe
00000030: 0e43 55be 824b abbe 8276 b1bd fc5b d73c
00000040: ec74 a23e de38 653e 5893 5abd 3b41 fc3d
00000050: 2564 b33e 8051 18be 503d 1abe 9f31 0cbe
00000060: 9da7 cf3e 9808 30be 4090 2ebd 9cc8 47be
00000070: a5a7 173d bfed 9abe 2d8d 4fbe 2489 01be
00000080: 5772 29be 8060 8bbb 0756 86be 3781 90be
00000090: c21e 0b3f f787 bebe 592a 073f 3bcc e3bb
000000a0: ffeb 42be d365 903e 8724 b4be f474 4ebe
000000b0: 1570 7fbe 0135 433e 9aab ecbe 3174 91bd
000000c0: 5e6f d83e cecc 0d3d 7ec7 d73e 9e96 90be
000000d0: c620 a13e d923 ab3d de1a 0cbf d865 9d3e
000000e0: 5023 58be 9caa b6be 6250 3e3c 3f76 09bf
000000f0: 0a21 53be 7ad4 93be dc54 aa3d 23a4 1e3e
00000100: 63d3 b8be a660 bcbe 59cb 08bf 3305 2fbe
00000110: 9a62 7bbe b31e a8be 11cb b33e d9a3 e4be
00000120: 61c7 ab3d 2f8d 8cbe bb28 6f3d d6d6 bd3e
00000130: 8219 59bd 816e 7e3e 498f 433e 870d 9f3e
00000140: 1937 5ebe bba1 d03e 7003 c43e 8e9c 6bbe
00000150: d6e7 cfbe 9b67 013d a9b1 8f3d 31e0 e4bd
00000160: 075f eb3e 693b 84bd 9a25 c93e 0794 a93e
00000170: 6dc3 263e 408d 96be 3f61 d73e fc53 bcbe
00000180: f71b 563e fc19 d53d f0d5 b1be 4496 7e3e
00000190: 5711 3abe 7b60 c93e 1bde 11bf 60ee d63e
000001a0: bf55 993e ad4a 2a3e d76a 0cbe b094 fdbd
000001b0: aa71 4dbe 05b6 52be f63a c03d e935 e93d
000001c0: 5b52 c43e 9d69 aebe 57f7 b13d 31db e9be
000001d0: 650f 583e b800 dbbe b928 23be d809 a0be
000001e0: b5f8 5bbe e6f1 be3e b2b6 23be 5d8c 5e3e
000001f0: 2b98 50be 4b3c 9bbe 0bc1 33be 4960 3cbe
00000200: aae1 0d3f fac4 73be 04cd 1a3d 1350 8cbd
00000210: 4870 84be d28a d43e abd1 c03e 9c1e 95be
00000220: 2980 b63e f0f6 04be 4364 b53d 03ff d6bd
00000230: f579 f83d 1276 e1be 8484 4dbe 84da b5be
00000240: 7d55 253f f252 993d 3ba3 063e f3b5 6a3e
00000250: 1f35 033e e6e6 a53e 3e40 1a3e 72bc 523e
00000260: d4e6 153f 26e5 323d d307 0f3e 7853 0a3f
00000270: d8ec 903d 2015 d73d b598 34be 5dba 053c
00000280: 14df c6be b3e3 02be e4f7 a73e dfae 1e3d
00000290: 3604 773d e1b2 d4bc 0e1a 9bbe 1a02 683e
000002a0: 6660 903e b6e6 853d adcd 743c 340a cebe
000002b0: 5680 b4be 3314 6ebe b64b a83d 383f 6a3e
000002c0: 1e68 d93e f4d5 6ebe ded4 a03e 3d7c 023e
000002d0: 9b8a b03d a13c ad3c a6f8 083f 00f3 5e3e
000002e0: 62a7 c33d 45de 27be 8216 613e 9340 dd3c
000002f0: bb7b 523e 245f 613e 0b93 5d3e fc35 3dbe
00000300: d4c2 e83e f40a a53e e307 8cbe 2f07 413c
00000310: 8c94 33be 4f96 14bd 4238 b5be 1e12 b43e
00000320: 8c98 85be 019c 2dbc 956b 75be 0880 9fbd
00000330: 4a34 97be f9bf adbe 511d 873e 4199 4cbc
00000340: 6334 1a3f e320 fcbe c533 bdbd 9624 213f
00000350: fec3 a1bd c96e 8abe 3593 073f 9796 b9be
00000360: 4230 5e3d 50e5 3cbe 81c0 ec3b f90e 46be
00000370: 47bd e5be 3a7e 363e 3ae3 99be 6f3e 82be
00000380: a84f cf3e 2717 54be bdde 053e 210d 043f
00000390: b3b4 a1be c6a5 0ebe 4d32 9e3d 0d8d b9be
000003a0: 887d 963e 9daa 83bc aeef ffbe 36f1 92be
000003b0: 8740 66be d0cc 8d3e 29ac 5d3e 4990 f13d
000003c0: 2ed1 4bbd aaf3 ab3e 76c7 cf3e 7c96 933e
000003d0: bf42 09bf d40e b6bd 16fd 0cbe 2ef7 df3d
000003e0: 0bae a53e 5863 e63e 6ac0 aebe 2a9d adbe
000003f0: 38fa b63e f417 7f3e c434 383e 2c1f 18be

block1.tcn2.conv_a.weight f4 [32, 8, 3, 1]
0.13923208 -0.1328208 -0.006774051 -0.107574604 -0.27708796 0.1492746 0.37225965 0.1260958
-0.12331107 -0.053753164 -0.060128134 -0.22473875 0.11415165 -0.11524658 0.010259345 -0.19606648
-0.4356405 0.032431602 0.14056098 0.2105466 -0.09461707 0.07273236 -0.21529873 -0.017270189
-0.3333134 -0.2426001 -0.09371174 -0.21069822 -0.21156685 -0.07171399 0.13433658 0.07811468
-0.05715395 0.02978625 0.05607323 -0.037488934 -0.30881956 -0.2807315 0.11493921 0.03184454
0.10254889 0.12487664 0.15912533 0.15325643 0.06694204 -0.009158024 0.20245223 -0.0466117
-0.015677707 -0.05210585 0.049753606 -0.103822336 0.18593729 0.0482653 -0.29601172 0.22191846
-0.09063913 -0.07972645 0.061694305 -0.094827056 -0.14526215 -0.23478784 -0.0118692955 0.029025538
0.21447831 0.061543733 -0.15293558 -0.11121454 0.07227584 0.13233306 0.19098297 -0.07001792
0.35502148 0.19436201 0.15023758 -0.100164376 -0.08792981 0.076523714 0.034145694 0.23669644
0.091286056 -0.1448826 -0.15506165 0.19267619 0.18675624 0.20723814 0.08637002 -0.21408139
-0.16345054 0.19411464 -0.011089023 0.42534712 0.41835943 -0.08974571 -0.13060892 0.25499785
-0.107486874 0.108878896 0.018970106 -0.03959079 0.07477274 0.20365031 -0.42124882 -0.22743858
-0.112396404 -0.4455341 -0.2177667 -0.107828006 0.062278382 -0.2740529 0.04772616 0.18368657
0.037282556 0.010421045 0.10565842 0.042696018 -0.3036563 -0.15589938 0.1709301 0.034292813
-0.07257004 -0.041074444 0.17850795 0.014540962 0.17935105 0.07774654 -0.29105926 -0.036284447
-0.017591823 -0.19899797 0.07567824 -0.052863836 -0.12289093 -0.2126074 -0.12688725 0.2339036
0.23589426 0.06339246 0.060912266 -0.21795198 -0.061281994 0.05036621 -0.17841655 0.1399567
-0.089020036 -0.07822026 0.22665015 -0.03134132 -0.2801019 0.11117707 -0.14822976 -0.23824535
-0.08385748 0.007404125 -0.091013305 0.15772946 -0.12670395 -0.13851924 -0.050478864 -0.16459438
0.046745516 -0.0969053 -0.060630947 0.32455584 0.0038752249 -0.1222188 0.01450131 0.25493687
-0.027800923 -0.19504702 0.25421184 -0.02295304 0.044460885 0.020010969 -0.10494634 0.0632316
0.08051454 -0.43733174 0.09186639 -0.21140656 -0.07557156 -0.056140684 0.21085836 -0.10988284
0.09190365 -0.12747289 0.35929236 0.020812714 -0.6113196 -0.08791776 0.04614626 0.14196828
0.1278497 0.01886027 -0.21153937 -0.16539742 -0.050904896 0.044433177 0.03481229 0.16182832
-0.14001718 0.28355834 0.15859596 0.33631974 0.07286882 -0.056389794 0.108307794 -0.05794716
-0.10058299 -0.29224145 -0.24661876 -0.15187123 -0.01535536 -0.07975 -0.26528075 0.12735972
0.12799785 0.053533472 0.1631358 -0.19180071 -0.12643874 -0.16357815 0.18309118 0.10476305
-0.25893188 -0.017955607 0.33012766 -0.22968288 0.08643279 -0.075468674 0.14204511 -0.39993948
-0.09234163 -0.16944762 -0.03708856 0.14119875 0.08722147 -0.1344423 0.071436316 -0.099226415
0.05094511 -0.19289552 0.14090075 0.15107104 -0.17698488 -0.09439458 0.4123749 0.009755914
0.039923012 0.32968345 -0.086979225 -0.12064194 0.040213857 -0.19448063 0.24902005 0.14388798
00000000: db92 0e3e 2d02 08be dcf8 ddbb 1350 dcbd
00000010: 79de 8dbe 71db 183e d198 be3e 421f 013e
00000020: 848a fcbd 472c 5cbd eb48 76bd ea21 66be
00000030: 57c8 e93d 6606 ecbd d016 283c a7c5 48be
00000040: 460c dfbe 00d7 043d 38ef 0f3e 8799 573e
00000050: 98c6 c1bd b4f4 943d 4577 5cbe 367a 8dbc
00000060: 0ea8 aabe 296c 78be f1eb bfbd 46c1 57be
00000070: fba4 58be c9de 92bd 878f 093e 97fa 9f3d
00000080: 431a 6abd 4b02 f43c 0bad 653d ff8d 19bd
00000090: 991d 9ebe 0abc 8fbe 4065 eb3d 6c6f 023d
000000a0: 2705 d23d 53bf ff3d c0f1 223e 41ef 1c3e
000000b0: e918 893d 890b 16bc a34f 4f3e e9eb 3ebd
000000c0: 896e 80bc f26c 55bd 70ca 4b3d cea0 d4bd
000000d0: 5866 3e3e d6b1 453d d98e 97be 983e 633e
000000e0: 02a1 b9bd 9f47 a3bd 2bb3 7c3d b034 c2bd
000000f0: 9abf 14be 396c 70be 6f77 42bc f7c6 ed3c
00000100: 34a0 5b3e 4815 7c3d 259b 1cbe 73c4 e3bd
00000110: 5b05 943d 5182 073e 0a91 433e 8e65 8fbd
00000120: 60c5 b53e d606 473e e1d7 193e fb22 cdbd
00000130: 8b14 b4bd 77b8 9c3d 5bdc 0b3d 8d60 723e
00000140: 2ff4 ba3d 1b5c 14be 7bc8 1ebe e84c 453e
00000150: 073d 3f3e 3c36 543e c4e2 b03d 2738 5bbe
00000160: 945f 27be fdc5 463e bcae 35bc 19c7 d93e
00000170: 3533 d63e 99cc b7bd 58be 05be 148f 823e
00000180: 1422 dcbd e6fb de3d 3267 9b3c f429 22bd
00000190: 7322 993d b589 503e edad d7be a9e5 68be
000001a0: 1630 e6bd 0c1d e4be 3cfe 5ebe eed4 dcbd
000001b0: 9e17 7f3d a950 8cbe 827c 433d 5518 3c3e
000001c0: 98b5 183d 08bd 2a3c 7163 d83d 05e2 2e3d
000001d0: d778 9bbe 16a4 1fbe 4d08 2f3e 9f76 0c3d
000001e0: 9a9f 94bd ad3d 28bd caca 363e 373d 6e3c
000001f0: cda7 373e 9439 9f3d b805 95be 009f 14bd
00000200: ba1c 90bc 20c6 4bbe 31fd 9a3d c087 58bd
00000210: 3dae fbbd c1b5 59be bbee 01be 6d84 6f3e
00000220: 448e 713e e8d3 813d 247f 793d ce2e 5fbe
00000230: d402 7bbd cd4c 4e3d d4b2 36be cf50 0f3e
00000240: 2350 b6bd f231 a0bd fa16 683e c25f 00bd
00000250: 8469 8fbe ceb0 e33d 8bc9 17be 97f6 73be
00000260: 78bd abbd 4d9e f23b 2f65 babd d583 213e
00000270: aebe 01be fdd7 0dbe edc2 4ebd 6e8b 28be
00000280: 3a78 3f3d 4976 c6bd 2858 78bd 2f2c a63e
00000290: 7cf7 7d3b da4d fabd e796 6d3c 1687 823e
000002a0: c3be e3bc 68ba 47be 0e28 823e 0408 bcbc
000002b0: 9e1c 363d 0bee a33c 1bee d6bd 927f 813d
000002c0: cfe4 a43d f2e9 dfbe 7224 bc3d f67a 58be
000002d0: 43c5 9abd c6f3 65bd 41eb 573e 410a e1bd
000002e0: fb37 bc3d 4188 02be 2bf5 b73e 6d7f aa3c
000002f0: 717f 1cbf 3a0e b4bd dc03 3d3d 2260 113e
00000300: 08eb 023e da80 9a3c c79d 58be f15d 29be
00000310: a781 50bd 90ff 353d 5597 0e3d 53b6 253e
00000320: aa60 0fbe 8f2e 913e fb66 223e 1a32 ac3e
00000330: 3f3c 953d fcf8 66bd 7ad0 dd3d 005a 6dbd
00000340: 74fe cdbd aca0 95be a189 7cbe 2284 1bbe
00000350: 0c95 7bbc f853 a3bd e1d2 87be 966a 023e
00000360: de11 033e ea45 5b3d 120d 273e 6867 44be
00000370: 2879 01be 0881 27be 417c 3b3e 038e d63d
00000380: b892 84be a317 93bc 7e06 a93e fd31 6bbe
00000390: ad03 b13d 528f 9abd 4674 113e dec4 ccbe
000003a0: 9c1d bdbd ad83 2dbe 2dea 17bd 6896 103e
000003b0: 2ca1 b23d 3eab 09be 344d 923d 3837 cbbd
000003c0: d2ab 503d 6786 45be 4948 103e 5eb2 1a3e
000003d0: 863b 35be f251 c1bd ce22 d33e 45d7 1f3c
000003e0: 5086 233d 45cc a83e 2a22 b2bd 1f13 f7bd
000003f0: 49b7 243d ee25 47be 1dff 7e3e 5f57 133e

block1.tcn2.conv_a.bias f4 [32]
0.2303173 -0.8618785 0.249218 0.7763733 0.12438726 0.2546566 0.11580733 -0.24582449
0.012107667 0.25631994 0.15514794 0.21545488 -0.5800436 -0.06334165 -0.007941146 0.22703195
-0.18621296 -0.2034133 -0.09361303 -0.11905438 0.012818886 -0.06458079 -0.10363359 0.52053624
-0.2659108 0.17169902 0.059687324 -0.324239 0.36712125 0.19466893 -0.09887626 0.09238309
00000000: 4cd8 6b3e 12a4 5cbf 0133 7f3e 67c0 463f
00000010: bfbe fe3d 5a62 823e 652c ed3d 6ab9 7bbe
00000020: 3c5f 463c 5e3c 833e 1adf 1e3e 34a0 5c3e
00000030: bd7d 14bf 44b9 81bd 951b 02bc 107b 683e
00000040: 9cae 3ebe 934b 50be 30b8 bfbd c8d2 f3bd
00000050: 4e06 523c ef42 84bd d93d d4bd dd41 053f
00000060: 7625 88be ded1 2f3e b27a 743d a702 a6be
00000070: 51f7 bb3e 4b57 473e a37f cabd 5833 bd3d

block1.tcn2.conv_b.weight f4 [32, 8, 3, 1]
0.039430138 -0.3027522 -0.08024735 -0.01034743 -0.21242954 -0.23832385 -0.05282627 -0.39542085
-0.16987488 -0.53549546 -0.07866502 -0.051853005 -0.051921256 -0.39656213 -0.10506345 0.04161281
-0.3284371 -0.34537214 0.049984455 -0.23501042 -0.26795277 -0.2359511 -0.20364225 -0.20481358
0.071895346 -0.08208828 -0.090508126 -0.2542253 0.057650153 -0.19851895 0.019151054 -0.16377012
0.0698312 -0.10758638 -0.059588432 -0.0642296 0.027932279 -0.26665983 -0.0848447 -0.3742328
-0.211605 -0.22200234 -0.28698882 -0.122146055 0.08951047 -0.3061189 0.019744048 -0.068053395
-0.018599255 -0.16410287 -0.21071886 -0.05678811 0.1679541 0.18993698 -0.014305029 0.17472234
-0.11453638 -0.52745426 0.12198978 -0.13629496 -0.056017376 -0.07817558 -0.23263493 0.04277452
0.2147446 0.07590595 -0.014372181 -0.12419367 -0.1293229 0.20012964 0.2993409 0.095149174
-0.076511316 -0.1333431 -0.038101453 -0.08735896 -0.13699809 -0.14978099 -0.110853955 -0.36341456
0.33696222 -0.5456953 0.14734985 0.18774728 0.006812748 0.009241821 0.12269758 -0.3441855
-0.31018934 0.013315008 0.110276 -0.10046644 0.18300065 -0.21413445 -0.28221893 0.2882202
0.27825028 -0.38037834 -0.12339996 0.110958576 -0.007291725 0.013286857 -0.32492712 -0.17526524
-0.3011106 -0.2118328 -0.219975 -0.4005017 -0.053778198 0.27513242 -0.18308677 -0.095441334
-0.13518661 -0.23162648 -0.17332304 -0.22777292 0.038379725 -0.3084522 -0.07727768 -0.05642489
0.06764682 -0.098065786 -0.17391215 -0.03320383 -0.18174373 0.09765082 -0.18052211 -0.16277453
-0.1994573 -0.5459755 -0.036312345 -0.39732513 -0.05167478 0.22942476 0.09508762 0.01932775
-0.059507556 -0.05638875 0.05569155 -0.31427282 -0.19465826 0.013367409 -0.32107794 -0.21184215
0.032057967 0.0925306 -0.44701698 -0.16173007 -0.41723007 0.06656137 -0.41570914 0.008003633
-0.005145795 -0.1887304 0.020432247 0.24256863 0.13267703 0.3316962 -0.06901353 -0.2570996
-0.3298813 -0.27683803 -0.122362375 -0.16913065 0.11141282 -0.18043067 -0.050209 0.22744425
0.2962172 -0.17462604 0.3534659 -0.12415633 0.022468917 -0.20263885 -0.023432162 0.14277738
-0.12658547 -0.19033101 0.17241447 0.066005014 0.25972062 0.009334735 0.1691748 0.04924331
-0.0075536645 -0.026843352 0.23312125 -0.42748114 0.1421007 -0.17684653 -0.24039748 -0.122416474
0.16984217 -0.1723271 -0.7658395 0.0016150071 -0.07800726 -0.1261586 -0.103629 -0.22092198
-0.09367951 -0.03331038 -0.44851324 -0.7627772 -0.121072516 -0.3792306 -0.02345482 -0.023114724
-0.26339525 0.07423782 -0.7111303 -0.70319617 -0.8516171 0.0061606155 -0.025000516 -0.26072624
0.03507711 -0.09678481 -0.06624012 0.035980422 -0.13329872 -0.10886592 0.23509993 -0.32711235
-0.12222424 -0.14953794 -0.7603325 -0.006800478 -0.2059342 -0.3559922 -0.0038952832 0.16232455
-0.31320122 -0.10902577 -0.15651365 -0.15885928 -1.4057852 -0.092545815 -0.47851345 -0.10692226
0.04411468 -0.39627537 0.102150425 -0.22591278 -0.097458586 -0.01330291 -0.18989854 0.071904264
-0.308907 -0.44803485 -0.19625139 -0.36916316 0.056361243 -0.15413553 -0.0014010523 0.030073516
00000000: 7f81 213d 5602 9bbe b958 a4bd 4488 29bc
00000010: 2187 59be 2b0b 74be 5c60 58bd 9a74 cabe
00000020: aef3 2dbe 3b16 09bf 201b a1bd d163 54bd
00000030: 62ab 54bd 310a cbbe 822b d7bd 3272 2a3d
00000040: e828 a8be 9ed4 b0be 80bc 4c3d 92a6 70be
00000050: 1b31 89be 2a9d 71be 9887 50be a7ba 51be
00000060: de3d 933d e61d a8bd 535c b9bd d229 82be
00000070: 9122 6c3d 8d48 4bbe ace2 9c3c 5bb3 27be
00000080: a903 8f3d 3f56 dcbd 0013 74bd cf8a 83bd
00000090: 3cd2 e43c a387 88be 0fc3 adbd 719b bfbe
000000a0: fbae 58be 9554 63be 33f0 92be b627 fabd
000000b0: 4451 b73d 9ebb 9cbe 45be a13c 945f 8bbd
000000c0: 775d 98bc 950a 28be afc6 57be a69a 68bd
000000d0: 29fc 2b3e d77e 423e a45f 6abc 6aea 323e
000000e0: 0d92 eabd 3e07 07bf c7d5 f93d e890 0bbe
000000f0: 7a72 65bd 851a a0bd da37 6ebe 5634 2f3d
00000100: 02e6 5b3e 9474 9b3d 4c79 6bbc 4059 febd
00000110: 396d 04be c9ee 4c3e 3643 993e 92dd c23d
00000120: f7b1 9cbd 188b 08be 4510 1cbd 41e9 b2bd
00000130: 3a49 0cbe 3060 19be 6607 e3bd 7911 babe
00000140: 5086 ac3e b0b2 0bbf e1e2 163e d340 403e
00000150: 793d df3b 026b 173c de48 fb3d 1539 b0be
00000160: 23d1 9ebe 3127 5a3c 62d8 e13d 59c1 cdbd
00000170: 8664 3b3e 1046 5bbe 007f 90be 9991 933e
00000180: d276 8e3e f3c0 c2be 1eb9 fcbd 403e e33d
00000190: 6cef eebb 1eb1 593c d95c a6be bb78 33be
000001a0: 2b2b 9abe b3ea 58be 2041 61be 8f0e cdbe
000001b0: 8746 5cbd 28de 8c3e 197b 3bbe bf76 c3bd
000001c0: 5c6e 0abe 7e2f 6dbe 987b 31be 4e3d 69be
000001d0: 0f34 1d3d 72ed 9dbe c343 9ebd c91d 67bd
000001e0: 6a8a 8a3d b7d6 c8bd 0716 32be bd00 08bd
000001f0: 071b 3abe 27fd c73d cada 38be 5eae 26be
00000200: 893e 4cbe 0dc5 0bbf 41bc 14bd 336e cbbe
00000210: efa8 53bd 53ee 6a3e 4cbd c23d 3b55 9e3c
00000220: 32be 73bd e4f7 66bd d31c 643d 5ee8 a0be
00000230: 7f54 47be fa02 5b3c 5464 a4be 26ed 58be
00000240: 374f 033d af80 bd3d 69df e4be 919c 25be
00000250: 2e9f d5be 5451 883d d4d7 d4be ab21 033c
00000260: 0f9e a8bb 8b42 41be 8761 a73c e963 783e
00000270: 7ddc 073e 16d4 a93e f756 8dbd 8fa2 83be
00000280: 34e6 a8be b7bd 8dbe 2099 fabd 9630 2dbe
00000290: 682c e43d d1c2 38be f4a7 4dbd 25e7 683e
000002a0: c8a9 973e 2bd1 32be 7cf9 b43e ad45 febd
000002b0: bc10 b83c 8f80 4fbe cef4 bfbc 3c34 123e
000002c0: 9f9f 01be 22e6 42be 6b8d 303e a32d 873d
000002d0: 1afa 843e b7f0 183c 293c 2d3e 5ab3 493d
000002e0: bb84 f7bb 97e6 dbbc 56b7 6e3e cfde dabe
000002f0: d982 113e 4217 35be c22a 76be 7db5 fabd
00000300: 1beb 2d3e 8476 30be 0f0e 44bf a5ae d33a
00000310: 45c2 9fbd b82f 01be 713b d4bd 5f39 62be
00000320: 0bdb bfbd 7770 08bd 87a3 e5be 5e45 43bf
00000330: def4 f7bd 832a c2be 5324 c0bc 175b bdbc
00000340: bedb 86be 000a 983d a30c 36bf aa04 34bf
00000350: 9403 5abf fdde c93b e2cd ccbc e97d 85be
00000360: 04ad 0f3d 1d37 c6bd e6a8 87bd 3560 133d
00000370: 767f 08be 18f5 debd 09be 703e 457b a7be
00000380: b450 fabd 7920 19be 27a5 42bf 8bd6 debb
00000390: 6ae0 52be 9c44 b6be 0248 7fbb 6838 263e
000003a0: e95b a0be e748 dfbd 1d45 20be 02ac 22be
000003b0: c5f0 b3bf a988 bdbd b7ff f4be 0ffa dabd
000003c0: 98b1 343d 9be4 cabe 3e34 d13d ae55 67be
000003d0: 5e98 c7bd 73f4 59bc c374 42be 8b42 933d
000003e0: 0f29 9ebe d364 e5be 20f6 48be f402 bdbe
000003f0: 0cdb 663d b4d5 1dbe 84a3 b7ba bc5c f63c

block1.tcn2.conv_b.bias f4 [32]
0.19509107 0.57161427 0.10972897 0.38194042 0.066681586 0.09094389 -0.1329731 -0.008231182
0.0336035 0.16575187 0.1493452 -0.10578364 0.21741006 0.14856064 0.1370131 0.24339694
0.30566657 0.06491783 0.16529518 -0.1584474 -0.018004699 -0.020978743 -0.21912725 0.3454251
-0.096965045 0.26032314 -0.16986741 0.15364178 0.14845774 0.025706304 -0.051933933 -0.15386334
00000000: f4c5 473e 5055 123f 95b9 e03d b28d c33e
00000010: 5b90 883d ca40 ba3d 1a2a 08be 14dc 06bc
00000020: d3a3 093d dcba 293e f3ed 183e 18a5 d8bd
00000030: bea0 5e3e 4820 183e 294d 0c3e 0c3d 793e
00000040: 5480 9c3e a4f3 843d 2443 293e 0940 22be
00000050: 977e 93bc 9ddb abbc e562 60be 8fdb b03e
00000060: 9c95 c6bd 1349 853e b9f1 2dbe 4554 1d3e
00000070: 4e05 183e 0796 d23c adb8 54bd 5a8e 1dbe

block1.layer_norm.weight f4 [207, 32]
1.0882784 1.1989671 0.9044431 1.2075994 1.1684192 1.1989706 1.2375078 1.2198548
0.97553724 1.0823631 0.904467 1.2038571 1.4090959 1.0466291 1.0561711 1.0349665
1.2918797 1.136227 1.140654 1.1251255 1.0349782 0.98530877 1.0960525 1.2797775
1.3871785 1.3702487 1.189733 1.1266477 1.2492075 1.4258218 0.9617444 1.0857791
0.74907714 1.2141966 1.0324701 0.7079446 0.8677115 0.9032883 0.79812217 0.91219246
0.8659445 0.85690194 0.9499196 0.88027215 1.1563345 0.8922023 0.8484217 1.0211601
1.0684938 1.1306214 1.1971197 0.97140497 0.85925704 0.73746115 0.8910369 0.7219573
0.81666565 1.0369952 1.0510757 1.0881879 0.8530022 1.053134 0.9634012 0.8779437
0.7631387 1.043935 0.929896 0.98837924 0.90464574 0.85624534 1.0042516 1.128634
0.7913847 0.84688234 0.78025424 0.94847894 0.933708 0.8612726 0.8116089 0.9528779
0.78290355 0.9534063 1.0358795 0.8856501 0.88986474 0.68016386 0.9819969 1.0145488
0.48646078 0.45917544 0.9878211 0.7869779 0.935352 0.7365104 0.8386258 0.8341183
0.88029987 1.3044089 0.9601701 1.1227049 1.1171545 1.1427411 1.0119593 1.0903238
0.9494859 1.0086625 0.925061 1.317284 1.1357827 0.94267976 0.92467076 0.9598059
1.2642883 1.1214777 0.8633206 0.9790684 0.92520094 0.70937556 0.94725883 0.9654666
1.1763477 1.0442553 1.0718212 0.97977936 1.2100799 1.0066997 0.89214003 1.1012539
0.8465894 1.5293891 1.075905 1.1785394 1.0006282 1.1001735 0.9613916 0.9785455
0.95392805 0.96065724 0.98005515 1.0740477 1.1391478 0.86567104 0.9220233 0.8229701
1.1946112 1.0726042 0.7622936 1.0395547 0.9800248 0.7754387 0.9727484 0.87456214
0.8029335 0.86375135 1.0973195 0.9631274 1.158537 1.0005038 0.9496872 1.0502981
1.0116786 1.5192757 0.9465851 1.3930519 1.2663879 1.2150524 1.2015713 1.3067825
0.98891324 1.0075449 0.8616863 1.4753505 1.2693148 0.9675459 1.0368993 0.9145513
1.2960366 1.2025269 0.8653028 1.1260449 0.85362005 1.122543 0.9299587 1.2263057
1.8062439 1.3562106 1.0428548 1.1468619 1.4391255 1.0300286 0.91986996 1.3164403
0.87421304 0.9166751 1.0978745 0.868994 0.9239789 0.87637985 0.9926027 0.54632837
1.0083206 0.9447556 1.0269101 0.90513676 0.8579095 0.8614883 0.8788302 0.94331384
1.0191633 0.93038756 0.9643442 0.94053763 1.0588851 0.44165203 0.896286 0.8118455
0.45867896 0.890259 1.0565976 1.1362674 0.73483527 1.0205406 0.9719466 0.82986295
0.90198636 0.8218082 0.94274586 1.116916 0.9021857 0.83894396 0.8094477 0.7436378
0.93405366 0.83036536 0.8595664 0.7633949 0.5885695 0.90267146 0.9013992 0.83830756
0.71775407 0.8924794 0.75237143 0.74318385 0.9257384 1.0024261 0.8558346 0.9422722
0.8346728 0.8877167 0.8284045 0.96950287 0.90501904 0.6952462 0.96208984 0.8525638
00000000: b54c 8b3f c177 993f 9589 673f 9e92 9a3f
00000010: c38e 953f de77 993f a866 9e3f 3424 9c3f
00000020: cfbc 793f e08a 8a3f 268b 673f fd17 9a3f
00000030: 415d b43f f1f7 853f 9d30 873f c879 843f
00000040: 505c a53f e36f 913f f300 923f 1d04 903f
00000050: 2a7a 843f 323d 7c3f 734b 8c3f c0cf a33f
00000060: 118f b13f 4f64 af3f 2c49 983f fe35 903f
00000070: 08e6 9f3f 5481 b63f e234 763f cffa 8a3f
00000080: 85c3 3f3f cb6a 9b3f fb27 843f db3b 353f
00000090: 5722 5e3f e73d 673f bc51 4c3f 7285 693f
000000a0: 8aae 5d3f ed5d 5b3f ee2d 733f 8459 613f
000000b0: c502 943f 5f67 643f 2a32 593f 60b5 823f
000000c0: 68c4 883f 34b8 903f 383b 993f ffad 783f
000000d0: 45f8 5b3f 41ca 3c3f ff1a 643f 32d2 383f
000000e0: 0011 513f 42bc 843f a689 863f be49 8b3f
000000f0: 5a5e 5a3f 18cd 863f 76a1 763f ebc0 603f
00000100: 0f5d 433f a99f 853f aa0d 6e3f 6c06 7d3f
00000110: dd96 673f e532 5b3f 518b 803f 1477 903f
00000120: 3098 4a3f 48cd 583f bebe 473f 84cf 723f
00000130: 7d07 6f3f 5c7c 5c3f 9ac5 4f3f ceef 733f
00000140: 5e6c 483f 6f12 743f b397 843f f7b9 623f
00000150: 2dce 633f 381f 2e3f 2664 7b3f bcdc 813f
00000160: 6311 f93e 0b19 eb3e d8e1 7c3f 6277 493f
00000170: 3b73 6f3f f28b 3c3f 2eb0 563f c788 553f
00000180: 555b 613f dff6 a63f b5cd 753f cbb4 8f3f
00000190: ebfe 8e3f 5745 923f e287 813f bb8f 8b3f
000001a0: 8211 733f da1b 813f ccd0 6c3f c39c a83f
000001b0: 5461 913f 7653 713f 39b7 6c3f d7b5 753f
000001c0: 33d4 a13f 958c 8f3f 9402 5d3f 3aa4 7a3f
000001d0: f8d9 6c3f a399 353f 8e7f 723f d228 773f
000001e0: 9092 963f 28aa 853f 7031 893f d2d2 7a3f
000001f0: e6e3 9a3f 89db 803f 4a63 643f e3f5 8c3f
00000200: 15ba 583f 06c3 c33f 41b7 893f 61da 963f
00000210: 9614 803f 7cd2 8c3f c31d 763f f581 7a3f
00000220: a134 743f a2ed 753f e5e4 7a3f 657a 893f
00000230: 98cf 913f 9e9c 5d3f b809 6c3f 2bae 523f
00000240: 05e9 983f 184b 893f ac25 433f 2110 853f
00000250: e8e2 7a3f 2783 463f 0a06 793f 4ee3 5f3f
00000260: 0d8d 4d3f cf1e 5d3f f774 8c3f 848f 763f
00000270: f14a 943f 8210 803f b31e 733f 2b70 863f
00000280: af7e 813f a077 c23f 6753 723f 864f b23f
00000290: 0019 a23f d686 9b3f 17cd 993f a644 a73f
000002a0: 6b29 7d3f 3bf7 803f 7997 5c3f 49d8 bc3f
000002b0: e878 a23f 17b1 773f 1eb9 843f 0920 6a3f
000002c0: 87e4 a53f 67ec 993f 7c84 5d3f 3d22 903f
000002d0: d886 5a3f 7daf 8f3f c611 6e3f 96f7 9c3f
000002e0: 0033 e73f 4f98 ad3f 447c 853f 5fcc 923f
000002f0: 4435 b83f fad7 833f 997c 6b3f 1e81 a83f
00000300: 6dcc 5f3f 38ab 6a3f 2787 8c3f 6476 5e3f
00000310: e289 6c3f 6e5a 603f 361b 7e3f 2ddc 0b3f
00000320: a610 813f 81db 713f ca71 833f 0bb7 673f
00000330: f59f 5b3f 7f8a 5c3f 04fb 603f 047d 713f
00000340: f173 823f e12d 6e3f 43df 763f 13c7 703f
00000350: 8c89 873f 3720 e23e 0073 653f 1bd5 4f3f
00000360: f8d7 ea3e 04e8 633f 973e 873f 3671 913f
00000370: 2a1e 3c3f 13a1 823f 7ed1 783f e671 543f
00000380: 94e8 663f 0662 523f cb57 713f 1af7 8e3f
00000390: a4f5 663f 08c5 563f f737 4f3f 0c5f 3e3f
000003a0: 241e 6f3f d392 543f 8b0c 5c3f d96d 433f
000003b0: 7eac 163f 7a15 673f 19c2 663f 539b 563f
000003c0: bbbe 373f 8879 643f 6a9b 403f 4c41 3e3f
000003d0: 31fd 6c3f 804f 803f fa17 5b3f c038 713f
000003e0: 1ead 553f 6741 633f 5112 543f 5731 783f
000003f0: 54af 673f a8fb 313f 854b 763f 9f41 5a3f

block1.layer_norm.bias f4 [207, 32]
-0.058716588 -0.67032576 -0.11324415 0.0014762932 -0.06458134 -0.11351851 -0.22774096 -0.16316003
0.03232092 -0.077274315 -0.13026905 2.9097022e-05 -0.42522928 0.0026084785 0.062355068 -0.07131362
-0.13117456 -0.13065767 -0.13775885 -0.15890804 -0.0993955 -0.14821401 -0.04367267 0.038663078
-0.20993216 -0.28439048 -0.10229753 -0.2579677 0.0020441678 -0.18401949 -0.049644493 -0.122564174
0.16763647 -0.31830692 -0.07068773 -0.03837661 -0.0763862 -0.061627477 -0.05846801 0.0401382
-0.002336567 0.14570089 0.0889725 -0.041148942 -0.13695636 0.07314483 -0.082829505 0.21693921
-0.14217597 -0.023818815 0.13889314 -0.06890465 0.04271548 -0.022228519 0.07811966 -0.032568775
-0.24139144 -0.28918174 -0.01002732 -0.026647326 0.1309723 -0.13500051 0.07222871 -0.069368064
-0.02293603 0.15280573 -0.024190428 0.025877314 0.12136843 0.028342692 -0.012147366 0.19235867
0.023413809 -0.14415385 -0.10439658 -0.037636768 0.322131 0.008290999 0.12477532 -0.23177402
0.1728208 0.0853037 -0.2696235 0.11656864 -0.010014821 0.104960024 0.123385124 -0.07768359
0.392705 -0.21046595 0.008022199 -0.104603134 0.28731507 -0.043086883 0.0027045794 0.2179722
-0.037859216 -0.028579036 -0.035668798 0.050168607 -0.06576538 -0.042332288 -0.07130585 0.08894974
-0.03326774 0.030604245 -0.01391697 0.063934706 0.09295824 0.01347304 -0.09132377 0.12570365
-0.034950547 -0.0043260423 0.19747242 -0.019163752 -0.055081997 -0.095513694 0.014581097 0.059833735
-0.23741835 -0.30076694 0.0304058 -0.008903506 -0.055111762 -0.028609775 -0.023451174 -0.0955196
-0.1475469 0.15742141 -0.05286131 0.051738236 0.12192824 0.020362547 -0.009113959 0.3031706
-0.03150462 -0.21298476 -0.21712418 0.110016316 0.3148869 -0.04087767 -0.035243087 -0.19955842
0.17723899 0.091073915 -0.10192146 0.058333747 -0.1026181 0.13841256 -0.097952396 -0.020139555
0.47939676 -0.08837646 -0.06157788 -0.15880328 -0.08189516 -0.2047689 -0.02950338 0.102682516
0.07848979 -0.40685764 -0.02858224 0.14562967 -0.10394408 -0.08130744 -0.050022237 -0.18489206
0.036623634 0.11891421 0.02099054 -0.019834222 -0.3157476 0.03874917 0.056376144 0.13667032
-0.09368189 -0.12407663 0.15733582 -0.05393886 -0.023767171 -0.11441039 0.02197148 0.5034737
-0.3908128 -0.0788367 0.0060269777 0.026237438 -0.17283379 0.22240296 -0.041746475 -0.15017805
-0.08003215 0.36897007 -0.028109929 -0.01955021 0.009173938 0.032479208 -0.0695542 0.37346014
-0.073876664 -0.10431374 -0.08388295 -0.031400863 0.44172704 0.013061739 -0.11910483 0.0313514
0.053590126 0.13190635 0.00070501457 0.08781389 -0.043068476 0.008911377 0.041919388 -0.16104938
0.1720865 -0.17623793 -0.023878707 -0.11138032 0.1272296 -0.077674374 -0.006050753 0.031471644
0.2548567 -0.21392648 0.020777414 0.11940129 0.034091495 0.050984565 0.10036147 0.013951689
0.11609618 0.23376496 0.061583813 -0.13339876 -0.08494144 0.052750442 -0.015529609 0.08386928
0.028195806 0.0057079853 0.04071035 0.06908328 0.044058558 0.08620061 0.009352708 0.3215258
0.01953793 0.20711839 0.03205873 0.06324171 0.095518894 -0.040688302 0.03432762 0.033835858
00000000: ce80 70bd 789a 2bbf 8dec e7bd 2e80 c13a
00000010: 3943 84bd 647c e8bd ed34 69be 6c13 27be
00000020: f162 043d ff41 9ebd 4065 05be 6115 f437
00000030: a7b7 d9be 02f3 2a3b 0768 7f3d e00c 92bd
00000040: a052 06be 20cb 05be a810 0dbe cab8 22be
00000050: de8f cbbd 6ac5 17be 1de2 32bd 2d5d 1e3d
00000060: 75f8 56be a19b 91be 5e81 d1bd 5814 84be
00000070: 72f7 053b 9b6f 3cbe 0658 4bbd ed02 fbbd
00000080: e5a8 2b3e 20f9 a2be bbc4 90bd cb30 1dbd
00000090: 5e70 9cbd 186d 7cbd 277c 6fbd f467 243d
000000a0: 1721 19bb 9d32 153e 3737 b63d cb8b 28bd
000000b0: 4a3e 0cbe f5cc 953d 84a2 a9bd 5025 5e3e
000000c0: 9496 11be ad1f c3bc 013a 0e3e e21d 8dbd
000000d0: 6df6 2e3d 9518 b6bc 33fd 9f3d d666 05bd
000000e0: 512f 77be a10f 94be a149 24bc 7e4b dabc
000000f0: 9a1d 063e 933d 0abe a5ec 933d d810 8ebd
00000100: 57e4 bbbc 1b79 1c3e 012b c6bc a9fc d33c
00000110: 0390 f83d ef2e e83c bf05 47bc acf9 443e
00000120: 51ce bf3c 119d 13be e0cd d5bd 0329 1abd
00000130: 5bee a43e f8d6 073c 348a ff3d 2b56 6dbe
00000140: f0f7 303e b5b3 ae3d 170c 8abe 8abb ee3d
00000150: 3415 24bc 48f5 d63d 57b1 fc3d 9318 9fbd
00000160: a110 c93e 6384 57be 8b6f 033c 2b3a d6bd
00000170: f61a 933e df7b 30bd 503f 313b 1b34 5f3e
00000180: 4412 1bbd 951e eabc 7219 12bd 997d 4d3d
00000190: 00b0 86bd 9f64 2dbd cd08 92bd 482b b63d
000001a0: c143 08bd c1b5 fa3c 0104 64bc 33f0 823d
000001b0: e460 be3d 07be 5c3c f507 bbbd 75b8 003e
000001c0: 4e28 0fbd 79c1 8dbb 3636 4a3e 4dfd 9cbc
000001d0: a99d 61bd af9c c3bd 8ee5 6e3c 3814 753d
000001e0: cc1d 73be 20fe 99be 9615 f93c 03e0 11bc
000001f0: dfbc 61bd 0c5f eabc ad1c c0bc c89f c3bd
00000200: 8916 17be 1433 213e 1a85 58bd 79eb 533d
00000210: 83b5 f93d 5bcf a63c b752 15bc 2d39 9b3e
00000220: fd0a 01bd ad18 5abe cd55 5ebe 3c50 e13d
00000230: db38 a13e 586f 27bd 0e5b 10bd 0b59 4cbe
00000240: 237e 353e f684 ba3d 33bc d0bd 5eef 6e3d
00000250: 7029 d2bd 06bc 0d3e 449b c8bd b5fb a4bc
00000260: 7e73 f53e b8fe b4bd 1639 7cbd 549d 22be
00000270: a6b8 a7bd f0ae 51be 13b1 f1bc 364b d23d
00000280: 41bf a03d a54f d0be 4d25 eabc f21f 153e
00000290: a2e0 d4bd 8484 a6bd 1ee4 4cbd 5854 3dbe
000002a0: aa02 163d 4b89 f33d 5af4 ab3c 617b a2bc
000002b0: aba9 a1be 73b7 1e3d acea 663d 4ef3 0b3e
000002c0: 4adc bfbd e31b febd a41c 213e feee 5cbd
000002d0: 5fb3 c2bc ff4f eabd 89fd b33c a7e3 003f
000002e0: 9e18 c8be 2375 a1bd f47d c53b e5ef d63c
000002f0: 57fb 30be 9abd 633e 5afe 2abd 46c8 19be
00000300: e5e7 a3bd a5e9 bc3e cb46 e6bc c327 a0bc
00000310: 494e 163c eb08 053d 6f72 8ebd 2b36 bf3e
00000320: a64c 97bd 71a2 d5bd d3ca abbd 319e 00bd
00000330: 0c2a e23e e700 563c 3ced f3bd 536a 003d
00000340: 5281 5b3d 7512 073e bad0 383a c5d7 b33d
00000350: 9268 30bd 0601 123c aab3 2b3d 21ea 24be
00000360: 7237 303e b777 34be 479d c3bc 5d1b e4bd
00000370: 7a48 023e be13 9fbd 6545 c6bb 69e8 003d
00000380: 947c 823e 8b0f 5bbe 6535 aa3c aa88 f43d
00000390: 86a3 0b3d 31d5 503d 508a cd3d a095 643c
000003a0: d6c3 ed3d 1560 6f3e 4f3f 7c3d af99 08be
000003b0: c7f5 adbd d910 583d e76f 7ebc a8c3 ab3d
000003c0: e4fa e63c 0d0a bb3b e5bf 263d 897b 8d3d
000003d0: bf76 343d f289 b03d 1a3c 193c 089f a43e
000003e0: 020e a03c d816 543e 0450 033d df84 813d
000003f0: 699f c33d c7a8 26bd 1e9b 0c3d 7897 0a3d

block2.tcn1.conv_a.weight f4 [32, 32, 3, 1]
0.13861227 -0.022306478 -0.04335286 0.12193992 0.048444655 0.17315263 -0.06325129 0.028562132
0.20192811 -0.0221642 -0.0822895 -0.0063280705 0.067418344 -0.02412531 0.11520292 -0.02555191
0.11545692 0.10588051 0.11067708 0.051079184 0.043229945 0.082462884 0.21797276 0.21530296
0.06868631 0.077607445 0.114102334 0.040661838 0.059471447 -0.034070004 0.15482679 0.008641519
0.1374362 -0.038330145 -0.09261049 -0.040223595 0.018369116 0.12961833 0.2130108 0.08852927
0.043030955 0.1643194 0.02214905 -0.008095221 0.09147197 0.15582122 0.0075996374 0.009019007
0.011305887 -0.024049046 -0.036481794 0.036082484 0.15860547 0.17342243 0.05937346 -0.08823968
-0.009348111 0.19179511 0.18682444 0.15943754 0.13743326 -0.02592855 0.031651102 0.17925571
-0.0024441192 -0.048925932 0.16503567 -0.008287819 -0.056699228 -0.018613793 0.045588065 -0.060050506
0.1479278 0.022348365 0.054498173 -0.03147715 -0.12330022 0.09300926 0.1315462 0.10083934
-0.049345415 -0.049592573 0.15530372 -0.09899929 -0.07922988 0.09037306 -0.11244352 0.10544307
-0.11095552 -0.09894104 0.037219528 0.107447885 0.053814013 0.07639105 0.14725332 0.25962916
0.08939467 0.10490481 0.09475021 -0.01213351 -0.04242265 -0.023502212 0.05379565 -0.08986723
0.19412996 -0.086313695 0.058920033 0.07064916 -0.0051561273 -0.13464001 -0.044601075 -0.064423785
0.036339194 0.13501957 -0.12236679 0.09361429 0.15499283 -0.0029146585 -0.23158008 -0.085892424
0.044763885 -0.04740418 0.045555457 0.11479437 0.13304731 0.044185158 0.14974244 0.11793062
0.09562559 -0.15457235 -0.109015465 -0.07765453 -0.06400584 -0.14271297 0.029086161 -0.09526665
-0.15454654 -0.06706937 0.06834267 -0.0034249448 -0.016151803 0.040412612 -0.03209117 0.05615733
-0.10205808 -0.06436828 -0.05703419 -0.08549513 -0.19898638 0.09380335 0.035051975 -0.062540725
0.18294294 -0.084382266 -0.04223244 0.0048626675 0.044200167 0.0060222135 -0.011691198 0.01469833
0.07640338 0.1687584 -0.04406965 0.0013539607 0.042625565 -0.03162836 -0.03945077 -0.064288475
0.10255533 -0.18253376 0.08161002 0.052623976 0.029455403 0.2647198 -0.06281694 0.082395546
0.14611699 0.13769357 -0.035430234 0.1312623 0.0064227213 -0.06045816 0.022410449 -0.078633144
0.07720674 -0.033808284 0.09053151 -0.12504913 0.065998904 -0.055170912 -0.0017371373 -0.010116314
0.032691877 0.062436085 -0.01710019 -0.1599146 -0.18152404 0.099454015 0.0043847044 0.03186642
0.16705412 -0.035298865 -0.08024673 -0.06338463 -0.11252817 0.077951215 0.05578345 -0.047574572
-0.023498597 0.08064453 -0.02288167 0.010689933 0.024749963 -0.16657512 0.005836602 -0.0010715657
0.046635617 0.046664413 -0.103833176 -0.017965132 -0.0322615 -0.116589546 -0.021960022 -0.11402277
0.023852529 -0.051638782 -0.08122625 -0.05216872 -0.22885862 -0.1743523 0.100072935 -0.06098884
0.024016766 -0.1429328 -0.041608814 0.05757431 -0.07122352 -0.11066641 0.08863067 0.025838774
0.08997036 0.053618636 0.2540777 -0.03446869 -0.102330565 0.15256259 -0.021580217 -0.057972897
-0.116255894 -0.192359 -0.09448545 0.003190958 -0.11463153 -0.010920965 -0.10890789 0.013650226
00000000: 60f0 0d3e 13bc b6bc c592 31bd a3bb f93d
00000010: e76d 463d ec4e 313e e489 81bd 22fb e93c
00000020: 3ec6 4e3e b291 b5bc 6687 a8bd b45b cfbb
00000030: a112 8a3d 71a2 c5bc 82ef eb3d 3d52 d1bc
00000040: ad74 ec3d e1d7 d83d aaaa e23d 6838 513d
00000050: e211 313d 4de2 a83d 4034 5f3e 6178 5c3e
00000060: 68ab 8c3d a7f0 9e3d 7cae e93d 078d 263d
00000070: 5598 733d fd8c 0bbd ea8a 1e3e 2895 0d3c
00000080: 13bc 0c3e 1200 1dbd 92aa bdbd 7fc1 24bd
00000090: d47a 963c abba 043e 811f 5a3e d54e b53d
000000a0: 3a41 303d 5843 283e ed71 b53c d1a1 04bc
000000b0: a855 bb3d 998f 1f3e 6106 f93b 75c4 133c
000000c0: 543c 393c 8102 c5bc ef6d 15bd 3acb 133d
000000d0: 7969 223e a695 313e 9631 733d 01b7 b4bd
000000e0: d228 19bc f065 443e e84e 3f3e 9843 233e
000000f0: 4ebb 0c3e 1c68 d4bc 96a4 013d cf8e 373e
00000100: 842d 20bb 8f66 48bd 1cff 283e a2c9 07bc
00000110: 733d 68bd f47b 98bc 8dba 3a3d 85f7 75bd
00000120: 637a 173e eb13 b73c 7a39 5f3d 2fee 00bd
00000130: d384 fcbd a47b be3d 0cb4 063e db84 ce3d
00000140: 6b1e 4abd 9521 4bbd f007 1f3e 24c0 cabd
00000150: 4643 a2bd 8315 b93d ca48 e6bd 89f2 d73d
00000160: a63c e3bd 9aa1 cabd 8173 183d a30d dc3d
00000170: 156c 5c3d e972 9c3d 93c9 163e 1dee 843e
00000180: 8e14 b73d 55d8 d63d 660c c23d a1cb 46bc
00000190: 5fc3 2dbd b687 c0bc d458 5c3d 4f0c b8bd
000001a0: 01ca 463e 3cc5 b0bd 2256 713d 82b0 903d
000001b0: bbf4 a8bb 12df 09be 9eaf 36bd 9ef0 83bd
000001c0: 68d8 143d 9242 0a3e 719b fabd d9b8 bf3d
000001d0: 71b6 1e3e db03 3fbb 5423 6dbe 5ee8 afbd
000001e0: 565a 373d e32a 42bd 5c98 3a3d 5019 eb3d
000001f0: 8e3d 083e 7ffb 343d 1556 193e 9c85 f13d
00000200: 59d7 c33d 3748 1ebe 8043 dfbd 5709 9fbd
00000210: 7e15 83bd 5923 12be 1a46 ee3c 291b c3bd
00000220: 7341 1ebe aa5b 89bd 3ef7 8b3d 0a75 60bb
00000230: c950 84bc b287 253d 0872 03bd 3a05 663d
00000240: d403 d1bd 84d3 83bd af9c 69bd 1218 afbd
00000250: 16c3 4bbe f91b c03d a992 0f3d 5a15 80bd
00000260: 6555 3b3e 9cd0 acbd ecfb 2cbd 0357 9f3b
00000270: 3c0b 353d fd55 c53b 708c 3fbc 44d1 703c
00000280: 6079 9c3d 01cf 2c3e 6182 34bd 6277 b13a
00000290: 2598 2e3d bd8c 01bd 2197 21bd ada9 83bd
000002a0: 8708 d23d 21ea 3abe 2723 a73d 3d8c 573d
000002b0: 754c f13c 5b89 873e 2ba6 80bd ffbe a83d
000002c0: b19f 153e 8bff 0c3e 4b1f 11bd a069 063e
000002d0: b175 d23b faa2 77bd 1e96 b73c 6a0a a1bd
000002e0: 911e 9e3d 8e7a 0abd 9668 b93d e10c 00be
000002f0: 6f2a 873d e5fa 61bd a8b0 e3ba e5be 25bc
00000300: ebe7 053d fbbc 7f3d b315 8cbc a7c0 23be
00000310: 70e1 39be 8cae cb3d 91ad 8f3b 5d86 023d
00000320: 3c10 2b3e 8b95 10bd 6658 a4bd cdcf 81bd
00000330: 2b75 e6bd e3a4 9f3d 307d 643d 8edd 42bd
00000340: 2180 c0bc f628 a53d 5772 bbbc d424 2f3c
00000350: 6fc0 ca3c ab92 2abe f740 bf3b c773 8cba
00000360: fd04 3f3d 2f23 3f3d 7da6 d4bd 9d2b 93bc
00000370: a224 04bd 80c6 eebd 81e5 b3bc c584 e9bd
00000380: 6166 c33c 3083 53bd f359 a6bd deae 55bd
00000390: ea59 6abe 6989 32be 0af3 cc3d 6fcf 79bd
000003a0: cfbe c43c fa5c 12be 016e 2abd 0ad3 6b3d
000003b0: a3dd 91bd 12a5 e2bd ff83 b53d d6ab d33c
000003c0: 6142 b83d 379f 5b3d 7916 823e 0b2f 0dbd
000003d0: b092 d1bd 5e39 1c3e ffc8 b0bc fd74 6dbd
000003e0: 9217 eebd c2f9 44be 9681 c1bd 641f 513b
000003f0: f0c3 eabd d9ed 32bc 1a0b dfbd 33a5 5f3c

block2.tcn1.conv_a.bias f4 [32]
-0.09199112 -0.1841738 -0.0067099393 0.19568141 -0.22247279 -0.14374574 -0.2245154 0.10652808
0.091998965 0.039362095 0.049107615 0.0014484043 0.008943396 -0.15096073 0.17066778 0.052242074
0.054141592 -0.069172725 0.11023613 -0.04698888 0.09637101 -0.0097752195 0.033515006 0.18064998
0.09290161 0.031234695 -0.2337036 0.08169098 -0.07297482 0.1420156 -0.13783807 0.15738022
00000000: d765 bcbd 0e98 3cbe 0ddf dbbb b560 483e
00000010: e8cf 63be 1532 13be 5de7 65be 652b da3d
00000020: f469 bc3d 263a 213d 1125 493d 62d8 bd3a
00000030: 5287 123c 7395 1abe 89c3 2e3e c9fb 553d
00000040: 93c3 5d3d 6eaa 8dbd 7bc3 e13d 6977 40bd
00000050: 2a5e c53d 3e28 20bc 0847 093d 4ffc 383e
00000060: 3343 be3d e7df ff3c ff4f 6fbe 9a4d a73d
00000070: d373 95bd 8a6c 113e 6c25 0dbe 4828 213e
